models/rnn_opt.pth (torch, 925107 bytes, 7 tensors)

fc_embedding.weight f4 [100, 491]
0	0x3cfd118d	0.030892158
1	0xbd0ee76c	-0.03488867
2	0xbd33f3c6	-0.043933652
3	0xbdc1e0ea	-0.09466727
4	0xbc6d8cb3	-0.014498877
5	0x3cb5a8ad	0.022175157
6	0xbda5c2a8	-0.08093768
7	0xbd382278	-0.044954747
8	0xbcf6edb9	-0.030142652
9	0xb8cbe446	-9.7223136e-05
10	0x3db8a930	0.09016645
11	0x3a5293e1	0.00080329
12	0x3c9ba990	0.019001752
13	0x3d06dd66	0.032925986
14	0xbde13b14	-0.109975964
15	0x3c8fc062	0.01754779
16	0x3dabe20b	0.08392724
17	0x3d41bc98	0.047298998
18	0xbd2cb44f	-0.042164143
19	0x3bc45843	0.005991967
20	0xbc99fc8e	-0.018797185
21	0x3cd6069b	0.026126197
22	0x3daac344	0.08338025
23	0xbd8e31a6	-0.069430634
24	0x3be67b66	0.007033753
25	0xbdf45808	-0.11930853
26	0x3c9dfc61	0.019285383
27	0x3cfa52ae	0.030557003
28	0x3d2d3334	0.04228516
29	0x3de7d581	0.113200195
30	0x3e0375f5	0.12837966
31	0x3cc6cc9b	0.024267485
32	0xbcbbf18c	-0.022942327
33	0x3ccfe9f8	0.02538012
34	0x3d2651fc	0.04060553
35	0xbd17e27a	-0.03708122
36	0x3be44e2e	0.0069673276
37	0x3d79ed5e	0.061017387
38	0xbc534378	-0.012894504
39	0x3d592baf	0.053020176
40	0xbd36a810	-0.04459387
41	0x3c13bed1	0.009017662
42	0x3b5201e3	0.0032044582
43	0xbce4a73d	-0.027911777
44	0xbd41863c	-0.047247157
45	0xbd2b907b	-0.041885834
46	0xba7a0b0a	-0.0009538388
47	0x3c793ce5	0.015212272
48	0xbd1eff08	-0.038817436
49	0x3c45ae7c	0.012065526
50	0x3d7ccce7	0.061718848
51	0xbd326f87	-0.043563392
52	0xbd80b41c	-0.06284353
53	0xbd1512da	-0.03639493
54	0xbcaff859	-0.021480726
55	0x3cd4a0b5	0.025955537
56	0xbd934038	-0.07189983
57	0x3c9b7d82	0.018980745
58	0xbc39870e	-0.011323703
59	0x3cc761f6	0.024338704
60	0xbc1042b1	-0.008804963
61	0x3cdcec76	0.026968222
62	0x3c640069	0.013916113
63	0x3e203739	0.15646066
64	0xbd18ca92	-0.03730256
65	0x3bf37a36	0.00743034
66	0x3c973f2d	0.018462742
67	0x3daee376	0.085394785
68	0xbd063955	-0.03276952
69	0x3ccfded6	0.025374811
70	0x3c869a40	0.016430974
71	0xbe04931f	-0.12946747
72	0xbc2dd703	-0.010610345
73	0xbc31b54d	-0.010846448
74	0xbdd5dcd3	-0.104425095
75	0xbc973f17	-0.0184627
76	0x3cba1356	0.022714298
77	0xbd044754	-0.032294586
78	0xbdc270e8	-0.094941914
79	0xbd888bd8	-0.06667298
80	0x3c35b2c9	0.011089989
81	0x3d95d578	0.073161066
82	0xbd84f774	-0.064925104
83	0xbcff4d2e	-0.031164732
84	0x3e0a414e	0.13501474
85	0xbd0ea918	-0.03482923
86	0xbd150de8	-0.036390215
87	0xbd0ed6bf	-0.034872767
88	0xbcd1cce8	-0.025610402
89	0xbc74aa5e	-0.014933197
90	0xbd83de45	-0.06438879
91	0x3cdcd320	0.026956141
92	0xbd21ae0c	-0.039472625
93	0x3da4aedf	0.080411665
94	0x3c6f10f6	0.014591446
95	0x3acd35b3	0.0015656262
96	0xbd296207	-0.04135325
97	0xbc4482aa	-0.011994043
98	0x3d7c2e49	0.06156758
99	0xbdd4cd7b	-0.10390755
100	0xbb885fc3	-0.0041618063
101	0xbd384d30	-0.044995487
102	0xbc318e2a	-0.010837117
103	0xbd97aa1d	-0.074054934
104	0xbd8aabf3	-0.06771078
105	0xbd4f063c	-0.050543055
106	0x3d2cac19	0.042156313
107	0x3d6fe3b8	0.05856678
108	0xbbc69092	-0.0060597146
109	0xbc8e446f	-0.017366616
110	0x3d0f3732	0.034964748
111	0xbcbeac2d	-0.02327546
112	0x3d876189	0.066104
113	0x3d1eb756	0.03874906
114	0x3daacda6	0.083400056
115	0x3df88801	0.12135316
116	0xbd36f0bc	-0.044663176
117	0xbd3b9c9f	-0.045803662
118	0x3d83ba90	0.06432068
119	0xbcf13eee	-0.029448953
120	0xbca55512	-0.020182166
121	0x3d1c293c	0.03812526
122	0x3d2e66c4	0.042578474
123	0x3bd0758f	0.0063616703
124	0xbd9f4627	-0.077770524
125	0x3caef075	0.021354893
126	0xbd4e4569	-0.050359163
127	0x3bf6953f	0.0075251157
128	0xbd702791	-0.058631483
129	0x3d32c418	0.04364404
130	0x3d45c789	0.048285995
131	0xba7923d8	-0.00095039373
132	0x3d5739a3	0.0525452
133	0xbd1f3fe0	-0.038879275
134	0x3d6a49f1	0.057199422
135	0x3d9f88a8	0.07789737
136	0x3d67d43e	0.056598894
137	0xbcd6baa0	-0.026212037
138	0xbda2bc7b	-0.07946106
139	0x3cf16fc4	0.02947224
140	0x3cbd31ff	0.023095129
141	0x3bcf7090	0.006330557
142	0x3d25eaab	0.040507
143	0xbb10e7b4	-0.0022110762
144	0x3d2be59d	0.041967023
145	0xbd641cc3	-0.05569149
146	0x3d8bb9b6	0.06822531
147	0xbca4c6b3	-0.020114278
148	0xbddafeaf	-0.10693108
149	0x3dfe6b98	0.12422866
150	0xbd8f14ab	-0.06986364
151	0x3d0203e8	0.031742007
152	0xbcde6c48	-0.027151242
153	0x3c851f08	0.016250148
154	0xbdad5b83	-0.0846472
155	0xbbfce15b	-0.007717294
156	0x3cea410b	0.028595468
157	0x3c395c13	0.011313456
158	0x3d729488	0.05922368
159	0xbd85867a	-0.0651979
160	0xbce28a57	-0.027653856
161	0x3da568d4	0.08076635
162	0xbd98002a	-0.07421906
163	0x3b06d81b	0.0020575586
164	0x3d364061	0.04449499
165	0xbd6c10b2	-0.05763311
166	0xbd08a435	-0.033359725
167	0x3c15c157	0.009140334
168	0xbd28561a	-0.041097738
169	0xbcd1bb52	-0.025602017
170	0x3c3f3991	0.01167144
171	0xbcbb81dc	-0.02288907
172	0x3d7093ea	0.05873481
173	0x3c153175	0.00910603
174	0xbccb5c0f	-0.02482417
175	0xbd122f57	-0.035689678
176	0x3cc2eda4	0.023794957
177	0xbcae17f5	-0.021251658
178	0xbcd333ee	-0.025781598
179	0xbd00d0ef	-0.031449255
180	0x3c91d797	0.017802997
181	0xbd709d3d	-0.058743704
182	0x3c461336	0.012089541
183	0xbd90f34e	-0.07077657
184	0xbdde263f	-0.108471386
185	0xb97d70b6	-0.00024169948
186	0x3d82d391	0.06388009
187	0x3dd9ceb8	0.106351316
188	0x3c20f51b	0.009824063
189	0xbd43314b	-0.04765443
190	0x3ddbf918	0.1074087
191	0x3c881bde	0.01661485
192	0x3d71ac21	0.059002046
193	0xbd075c73	-0.03304715
194	0xbaf00667	-0.0018312455
195	0xbbe7de22	-0.007076041
196	0xbd32df20	-0.04366982
197	0x3c40aeb7	0.011760405
198	0x3d521b10	0.05129534
199	0xbbfc21d8	-0.007694464
200	0x3d0b3af2	0.03399176
201	0xbd5f0e2a	-0.054456867
202	0x3bc38e62	0.005967901
203	0x3d86a5eb	0.06574615
204	0x3c9d3954	0.019192375
205	0x3d37d96d	0.044885088
206	0x3cd49885	0.025951633
207	0xbd817b75	-0.06322376
208	0x3c5815c6	0.013188785
209	0xbd389bd9	-0.045070503
210	0x3c164336	0.009171298
211	0xbbdbf278	-0.006712254
212	0xbd73698f	-0.05942684
213	0x3a940907	0.0011294194
214	0x3d8276ae	0.063702926
215	0xbc8e9ab2	-0.017407749
216	0x3dfebea1	0.12438703
217	0x3cf61838	0.030040845
218	0xbd0cffc4	-0.034423605
219	0xbc32fdfe	-0.010924814
220	0x3d48bbae	0.04900711
221	0x3c6ebb99	0.014571094
222	0xbd3363bf	-0.043796297
223	0x3dc03f6c	0.09387097
224	0x3d0cde05	0.03439142
225	0x3d716b02	0.05893994
226	0x3d83214d	0.06402836
227	0xbca5d4c0	-0.020243049
228	0x3d3b589b	0.045738798
229	0x3cce1a66	0.025159072
230	0x3b77fea3	0.0037840984
231	0xbb0588ed	-0.0020375804
232	0xbd0d9fc3	-0.03457619
233	0xbc92d40a	-0.017923374
234	0xbd074d67	-0.0330328
235	0xbd25891a	-0.040413953
236	0x3bdd66cb	0.0067566386
237	0xbc892d53	-0.016745245
238	0x3d7cd94b	0.061730664
239	0x3d1d36a2	0.03838218
240	0xbd57365d	-0.05254208
241	0xbd45dec8	-0.048308164
242	0xbcd56bf5	-0.026052454
243	0x3c5fb741	0.013654531
244	0xbd721da4	-0.0591103
245	0xbd0e8e17	-0.034803476
246	0xbd8ceb2e	-0.068807945
247	0x3d0dc28d	0.034609366
248	0xbd89fd34	-0.06737748
249	0xbc9e0230	-0.019288152
250	0xbc9c8056	-0.019104164
251	0x3d50e9a5	0.05100407
252	0x3cf00ce3	0.02930302
253	0x3d0d7d6b	0.034543436
254	0x3cff81a6	0.03118975
255	0xbdc61f93	-0.09673991

fc_embedding.bias f4 [100]
0	0x3d0d830c	0.034548804
1	0xbbfd12f3	-0.007723206
2	0x3c00f785	0.007871513
3	0x3d6d7bdc	0.05797945
4	0x3d3625d2	0.044469662
5	0xbd0b7cc7	-0.034054544
6	0xbd8557f1	-0.06510914
7	0x3d84c564	0.06482962
8	0x3cde8c62	0.02716655
9	0xbd214d93	-0.03938062
10	0x3d38c80c	0.045112655
11	0x3d2572ed	0.040392805
12	0x3d406906	0.04697516
13	0x3d333b82	0.043757923
14	0xbcbec277	-0.023286087
15	0xbd4e4697	-0.05036029
16	0x3cedf31b	0.029046586
17	0x3c94b237	0.018151386
18	0x3d91b93a	0.07115407
19	0xbcef1d62	-0.029188816
20	0xbd2f069b	-0.04273091
21	0xbd2b883d	-0.041877974
22	0xbcb79ad1	-0.02241269
23	0xbd366ce8	-0.044537455
24	0xbd32dd91	-0.043668333
25	0x3d84e5be	0.06489132
26	0xbc61c577	-0.013779989
27	0x3d1bcb2c	0.038035557
28	0x3d53c4d2	0.051701374
29	0xbd4fa96c	-0.050698683
30	0xbcb6ab85	-0.022298584
31	0xbd234b42	-0.039866693
32	0x3d9eb95c	0.07750198
33	0x3d16599f	0.036706563
34	0x3d79044b	0.06079511
35	0xbd6b66ea	-0.057471193
36	0x3d5310bb	0.051529627
37	0x3da1f46a	0.079079464
38	0x3cae73ad	0.021295393
39	0x3d44e23f	0.048067328
40	0x3c7a6f9d	0.0152854
41	0xbd230c92	-0.03980691
42	0xbd9223f0	-0.07135761
43	0x3d6b3939	0.05742762
44	0xbd248b6e	-0.040172033
45	0xbd5a2dfa	-0.053266503
46	0xbd2be790	-0.041968882
47	0xbd2d0961	-0.042245273
48	0xbdb236be	-0.087018475
49	0x3cd30020	0.025756896
50	0xbd6a6d57	-0.05723318
51	0x3d8912d8	0.06693047
52	0xbcb15c54	-0.02165047
53	0x3d825aac	0.063649505
54	0x3c08bb2e	0.008345408
55	0x3cfdd078	0.030983195
56	0xbd83aec9	-0.06429822
57	0xbcc98336	-0.024598699
58	0x3d1325af	0.03592461
59	0xbd6ab6b5	-0.05730315
60	0xbc88910f	-0.016670732
61	0xbc949c82	-0.018141035
62	0x3d1bd98e	0.038049273
63	0xbc20e16c	-0.00981937
64	0xbd73fbfc	-0.059566483
65	0x3d97a254	0.074040085
66	0x3d84e0c0	0.0648818
67	0xbc8b0ecc	-0.01697483
68	0x3d6734f0	0.05644697
69	0xbd636770	-0.055518568
70	0xbcde5ee9	-0.027144866
71	0xbd39e167	-0.045380976
72	0xbd76f04e	-0.060287766
73	0x3d11bd48	0.035580903
74	0xbd88ad8b	-0.06673726
75	0xbd27b3f3	-0.040943097
76	0xbd8797af	-0.06620728
77	0x3cff6cc4	0.031179793
78	0xbd4c8db2	-0.04993982
79	0xbd6cb599	-0.057790373
80	0xbd11ce18	-0.035596937
81	0xbd6bc375	-0.05755945
82	0x3cbb0ef1	0.022834273
83	0xbd8a5183	-0.067538284
84	0xbd98f6b1	-0.07468928
85	0x3cd39de2	0.02583212
86	0xbd0a2b60	-0.033732772
87	0x3d4e9d87	0.0504432
88	0xbd7fcf56	-0.06245359
89	0x3d31b049	0.04338101
90	0x3d8d54d5	0.06900946
91	0x3d4454a7	0.047932293
92	0x3d53df63	0.05172671
93	0x3d9a21a1	0.075259455
94	0xbd9f2217	-0.07770174
95	0x3d637ccd	0.05553894
96	0x3d5339c3	0.051568758
97	0x3d88bad8	0.066762626
98	0xbd3a09fb	-0.045419674
99	0x3d39be30	0.045347393

rnn.weight_ih_l0 f4 [600, 100]
0	0x3e32c895	0.17459328
1	0x3cd7dd61	0.026350679
2	0xbd0442f1	-0.032290403
3	0x3d7f7920	0.062371373
4	0x3c6ae000	0.014335632
5	0xbd2563f8	-0.04037854
6	0xbcd47150	-0.025932938
7	0x3d916aad	0.07100425
8	0xbd144000	-0.036193848
9	0xbd683ada	-0.05669675
10	0xbc7a388d	-0.015272272
11	0xbd66f208	-0.056383163
12	0x3d212414	0.039341047
13	0x3d4b952c	0.04970281
14	0xbe11445a	-0.1418623
15	0x3d627de2	0.055295832
16	0xbc08544f	-0.008320882
17	0x3ddd3260	0.10800624
18	0x3db171ae	0.08664261
19	0xbdf1f58f	-0.11814415
20	0xbd5b07c9	-0.05347422
21	0xbd38237a	-0.044955708
22	0xbd02abbb	-0.031902056
23	0xbcfce818	-0.03087239
24	0xbd85c999	-0.06532592
25	0x3dc7429e	0.09729503
26	0xbe66f20a	-0.22553268
27	0x3da4a174	0.08038607
28	0xb8e9aafd	-0.00011142155
29	0xbdf54711	-0.119764455
30	0xbd8ce326	-0.068792626
31	0xbdbf4c06	-0.09340672
32	0x3c3364b0	0.010949299
33	0x3dca5ce2	0.09880997
34	0x3dc1253a	0.094309285
35	0xbd2bda70	-0.041956365
36	0x3d35b84f	0.044365223
37	0x3db534cb	0.0884796
38	0xbd5394da	-0.051655628
39	0x3dd7e564	0.105418
40	0xbd705511	-0.058674876
41	0xbc4408bd	-0.011964974
42	0xbb7533dc	-0.0037414944
43	0x3d40aa1e	0.047037236
44	0xbd870f08	-0.06594664
45	0xbdc58e66	-0.09646301
46	0xbd5c3dfa	-0.053770043
47	0xbd1b98b2	-0.03798742
48	0xbd908832	-0.07057227
49	0x3e062ff6	0.13104233
50	0xbdc0a63e	-0.09406708
51	0xbc2de004	-0.0106124915
52	0xbcab8db2	-0.020941589
53	0x3e06ad2d	0.13151999
54	0xbd889bcb	-0.0667034
55	0x3d9c54a1	0.07633329
56	0x3b84befb	0.004051087
57	0xbc84f184	-0.016228445
58	0x3dcfaa05	0.101398505
59	0x3cd4bbd5	0.025968472
60	0xbb38159c	-0.0028089052
61	0x3d105e30	0.035246074
62	0x3dc1457a	0.0943708
63	0xbda22174	-0.07916537
64	0xbd9a26df	-0.07526945
65	0x3e17d77e	0.14828297
66	0x3d4ae0a9	0.04953066
67	0xbda78987	-0.08180528
68	0x3d3daf6b	0.04630987
69	0xbd1435f9	-0.036184285
70	0x3bac088d	0.005250043
71	0xbd919ef8	-0.07110399
72	0x3d4b5591	0.04964215
73	0xbdb91b90	-0.0903846
74	0xbe0e7b5b	-0.13914244
75	0x3c32c2fc	0.010910746
76	0xbe14f58e	-0.14546797
77	0x3c89550a	0.016764183
78	0x3c84650d	0.016161466
79	0xbd89f2fd	-0.067357995
80	0xbd32db45	-0.043666143
81	0xbd15fa26	-0.036615513
82	0x3df789e5	0.12086848
83	0x39f84dd5	0.00047360235
84	0xbc47fe39	-0.0122066075
85	0x3d22ec48	0.039776117
86	0xbd5ac2a9	-0.0534083
87	0x3c7f5f94	0.015586752
88	0xbd02d02d	-0.031936813
89	0xba8abbd3	-0.001058454
90	0x3e2690b3	0.16266136
91	0x3dc8c00e	0.098022565
92	0x3d9f85c9	0.07789189
93	0xbcbc87b5	-0.023013929
94	0xbdb87c53	-0.09008088
95	0x3ca88a3f	0.020573733
96	0x3dd7f4b5	0.10544721
97	0x3cbecbf3	0.02329061
98	0x3c7f2452	0.015572624
99	0x3cabea8b	0.020985862
100	0x3c606df9	0.0136980945
101	0x3d89977d	0.06718347
102	0x3c9ab4d1	0.018885048
103	0x3c0b4174	0.008499492
104	0x3d9eeb07	0.07759672
105	0x3caf309e	0.021385487
106	0x3b1b3dce	0.0023687962
107	0x3d4bffbf	0.049804445
108	0x3c836605	0.016039858
109	0xbdab9a91	-0.083790906
110	0xbb98bad9	-0.004660946
111	0x3de5e6e6	0.11225681
112	0xbc6b0d7a	-0.014346475
113	0x3da40f68	0.08010751
114	0x3da12492	0.07868303
115	0xbd140c86	-0.036144756
116	0x3c961f7c	0.01832556
117	0x3dc05fcd	0.093932725
118	0x3d9428c8	0.07234341
119	0xbd8b5533	-0.0680336
120	0xbaf10063	-0.0018386956
121	0xbe1ba820	-0.15200853
122	0xbd6b2eb1	-0.057417575
123	0x3dcf026a	0.10107882
124	0xbccba1b9	-0.024857389
125	0xbc94f4b3	-0.018183088
126	0xbdf6ef20	-0.12057328
127	0x3d300cef	0.042981084
128	0xbd37d3d5	-0.044879753
129	0xbc967a7e	-0.018368956
130	0xbdc71c56	-0.097222015
131	0xbd93d921	-0.072191484
132	0x3cd9ab77	0.026571019
133	0x3cc5d960	0.024151504
134	0x3d083250	0.033251107
135	0xbdc2f0fe	-0.09518622
136	0x3ca49088	0.02008845
137	0x3c43faf4	0.011961687
138	0xbc04034b	-0.008057426
139	0x3c54c038	0.012985282
140	0x3d48d4e2	0.049031146
141	0xbd069670	-0.032858312
142	0x3bee2315	0.0072673657
143	0x3d988573	0.074473284
144	0x3baf1347	0.005342874
145	0xbd800471	-0.06250847
146	0xbc61497a	-0.013750428
147	0xbd1e13d9	-0.038593147
148	0xbd6e99d5	-0.058252174
149	0x3d0d0bd1	0.034435097
150	0xbe0a85ef	-0.13527654
151	0x3cbeaca2	0.023275677
152	0xbc96365c	-0.018336467
153	0x3df921c0	0.121646404
154	0xbda7cf77	-0.08193868
155	0x3db97403	0.090553306
156	0xbc5c6e1f	-0.013453989
157	0xbd0c5ac7	-0.03426626
158	0x3dc0a73d	0.09406898
159	0x3cfd273f	0.030902503
160	0x3d2f3675	0.042776544
161	0x3b5f8787	0.003410788
162	0x3d7e6873	0.06211133
163	0x3c604c2f	0.013690039
164	0xbc302419	-0.010750794
165	0xbd4608dd	-0.048348296
166	0x3d1d0142	0.038331278
167	0xbe01fce4	-0.12694126
168	0xbd2dd4a2	-0.04243911
169	0x3d5ada49	0.05343083
170	0xbe0a5ce5	-0.13511999
171	0x3bd22c62	0.0064139822
172	0x3d82977d	0.0637655
173	0xbdd08439	-0.101814695
174	0x3c5ca1b3	0.0134662865
175	0x3cbb5985	0.022869835
176	0xbca979fb	-0.020688048
177	0xbda738b6	-0.08165114
178	0xbd342b7f	-0.043986794
179	0x3d1ac9b8	0.03779003
180	0xbbed4eb8	-0.00724205
181	0xbd7559f9	-0.059900258
182	0xbc9707b3	-0.018436288
183	0xbd93130f	-0.071813695
184	0x3c554d6c	0.013018947
185	0x3d8e9392	0.069617406
186	0xbdd059c9	-0.10173375
187	0x3cae24e6	0.021257829
188	0xbde3c044	-0.11120656
189	0xbc22a99e	-0.009928135
190	0x3ddc20d6	0.107484505
191	0x3d1de695	0.03854998
192	0xbc114754	-0.008867104
193	0x3daae80a	0.08345039
194	0xbdd8a90c	-0.10579118
195	0xbd03801f	-0.032104608
196	0xbd47d837	-0.048790183
197	0xbd2ee357	-0.042697277
198	0xbdd77e95	-0.105221905
199	0xbd60709c	-0.054794893
200	0xbcdc4b60	-0.02689141
201	0x3db1c53b	0.08680197
202	0xbd201d25	-0.039090294
203	0x3c5b26fa	0.013375992
204	0xbd33910c	-0.0438395
205	0x3d8eb71e	0.069685206
206	0xbca2c3d2	-0.019868765
207	0xbd2caef8	-0.04215905
208	0xbd531311	-0.051531855
209	0x3d27dcce	0.04098206
210	0xbd70cab1	-0.05878705
211	0xbd8695e8	-0.06571561
212	0x3d93412f	0.07190167
213	0x3d6e0122	0.05810655
214	0xbda309d9	-0.07960863
215	0xbd007a98	-0.031366915
216	0xbc0b2a8e	-0.008494033
217	0x395222fa	0.0002004019
218	0x3c140b19	0.009035849
219	0xbdd3e72a	-0.103468254
220	0xbd2959a9	-0.041345272
221	0x3d22a05b	0.03970371
222	0xbc35d97d	-0.0110992165
223	0xbda65027	-0.081207566
224	0xbdd52a2e	-0.10408436
225	0x3d4de910	0.050271094
226	0xbd03e583	-0.0322013
227	0x3bcd39ff	0.006263017
228	0xbd61649c	-0.05502759
229	0xbc1a7fcc	-0.009429883
230	0x3b9a9db5	0.004718507
231	0xbc83502f	-0.016029445
232	0xbdb41097	-0.08792227
233	0x3db6f418	0.08933276
234	0x3d847892	0.064683095
235	0xbbc089a5	-0.0058757835
236	0xbca1f5e9	-0.01977058
237	0xbd0dd5d7	-0.03462776
238	0xbdc7ea5c	-0.097614974
239	0x3d85d8db	0.065355025
240	0xbc8d96a3	-0.017283743
241	0x3d9f1832	0.07768287
242	0xbd0d6acc	-0.034525678
243	0xb8db5818	-0.000104591425
244	0xbd54e452	-0.051975556
245	0x3bb7815d	0.005600138
246	0xbcd6424a	-0.026154656
247	0xbda80039	-0.082031675
248	0xbd30cbe2	-0.043163188
249	0x3c6b2cdc	0.014353957
250	0xbd835abc	-0.064137906
251	0x3d86634a	0.06561907
252	0xbb8493e0	-0.0040459484
253	0x3dac659e	0.084178194
254	0x3c70293b	0.014658268
255	0x3d178da3	0.03700031

rnn.weight_hh_l0 f4 [600, 200]
0	0xbd18b7e7	-0.037284758
1	0x3cff0ce9	0.031134086
2	0xbb86a011	-0.004108437
3	0xbbf6d83b	-0.007533101
4	0xbcf407bc	-0.029788844
5	0x3b3ef0e0	0.0029135272
6	0xbda81ed4	-0.08209005
7	0x3a7cfe1a	0.0009650901
8	0xbd1b2de7	-0.037885573
9	0x3dea3adf	0.1143701
10	0x3c9f11c7	0.019417657
11	0x3cde8e19	0.027167367
12	0xbcfa82a2	-0.030579869
13	0xbcbe8e01	-0.023261072
14	0x3bd5b891	0.006522246
15	0x3c30d581	0.010793091
16	0xbbd30e16	-0.006440888
17	0x3b35baa5	0.0027729657
18	0xbc87c40f	-0.01657298
19	0x3c30a58d	0.010781658
20	0xbdd09d7d	-0.101862885
21	0x3d85e8fc	0.06538579
22	0x3da6ce88	0.081448615
23	0xbd5df0d9	-0.05418477
24	0x3d28d45f	0.041218158
25	0x3d8d3498	0.06894797
26	0xbda75eaf	-0.08172356
27	0xbd5cfd39	-0.05395243
28	0x3a1dc74f	0.0006018774
29	0x3d09ace0	0.033612132
30	0xbd96a5f0	-0.07355869
31	0xba60a549	-0.0008569551
32	0x3ce4a529	0.027910786
33	0xbceb8ca8	-0.028753594
34	0xbd90c6d0	-0.070691705
35	0x3cb2e143	0.021835929
36	0xbdaefa0d	-0.08543787
37	0x3d50b52e	0.050954036
38	0xbd400401	-0.04687882
39	0xbd70bc3a	-0.058773257
40	0xbd805464	-0.06266096
41	0xbd13ab2e	-0.03605192
42	0x3bd86f58	0.00660507
43	0xbcee7757	-0.02910964
44	0x3cebbd3a	0.028776754
45	0x3da11388	0.078650534
46	0x3d8430ba	0.06454606
47	0x3bd6a97b	0.0065509654
48	0x3d9a8a3b	0.075458966
49	0x3ca9ec6d	0.02074262
50	0xbcbee46e	-0.023302283
51	0xbd8b6c96	-0.068078205
52	0xbdc1dd21	-0.09466005
53	0xbcba1d17	-0.02271895
54	0x3cff38ed	0.031155074
55	0x3d668e8a	0.05628828
56	0xbd118880	-0.035530567
57	0x3ad09d16	0.0015915956
58	0xbc9ee3db	-0.01939576
59	0xbbe9b96c	-0.0071326997
60	0xbccdc01d	-0.02511602
61	0xbdc666a8	-0.09687549
62	0xbda42d16	-0.08016412
63	0xbd9292c6	-0.07156901
64	0x3d1c0f3e	0.038100474
65	0x3d2dd91b	0.042443376
66	0xbc170ace	-0.009218885
67	0x3d867435	0.065651335
68	0x3d1a4d49	0.03767136
69	0xbd2894b9	-0.041157458
70	0x3cd6807c	0.026184313
71	0x3d15bc3c	0.036556467
72	0xb9231a55	-0.00015554701
73	0x3acc7fa2	0.0015602002
74	0x3d7cfe01	0.061765675
75	0x3d8aa761	0.06770206
76	0xbd84414d	-0.06457768
77	0xbd0df6e6	-0.03465929
78	0xbcef7888	-0.029232278
79	0x3d4859e9	0.04891387
80	0xbb28cba4	-0.0025756145
81	0x3c21bd0f	0.009871735
82	0xbd26fa09	-0.040765796
83	0xbd7bceb6	-0.06147643
84	0x3ccd1dfb	0.02503871
85	0xbbe7dc60	-0.0070758313
86	0xbdc4f17d	-0.09616373
87	0xbd9f1ef8	-0.07769579
88	0x3c9f9719	0.019481229
89	0x3d37c6cf	0.044867333
90	0x3c1c0935	0.0095236795
91	0x3cf37a01	0.029721262
92	0xbd285739	-0.041098807
93	0x3d2472be	0.04014849
94	0xbd5c8f79	-0.053847764
95	0xbbae1170	-0.0053121373
96	0xbc65eb83	-0.014033201
97	0x3c8477be	0.016170379
98	0x3c967217	0.01836495
99	0xbd5fbec5	-0.05462529
100	0xbd0b0d49	-0.033948217
101	0xbc873675	-0.01650546
102	0xbc33bf41	-0.010970891
103	0x3c6b295a	0.014353121
104	0xbc7ce15c	-0.015434589
105	0xb9a76cbb	-0.00031933733
106	0x3d5f08b6	0.054451667
107	0xbceae66b	-0.028674325
108	0xbd0067b7	-0.03134891
109	0xbc94abd0	-0.018148333
110	0xbb6dc373	-0.0036279827
111	0x3a7ce2f0	0.00096468534
112	0x3d0415b0	0.032247245
113	0x3d7334c8	0.059376508
114	0x3d8b8c24	0.06813839
115	0x3bce1b27	0.006289858
116	0xbc25553a	-0.01009112
117	0xbd89b8b5	-0.06724683
118	0x3d432b11	0.047648493
119	0xbbe6b08c	-0.007040089
120	0x3cf512bc	0.02991616
121	0x3c9461d5	0.018113056
122	0x3d060004	0.03271486
123	0xbcced20c	-0.025246643
124	0xbd03dc6d	-0.032192636
125	0xbcb8c2e6	-0.022553872
126	0x3d3986b0	0.045294464
127	0x3c9db7de	0.019252714
128	0xbd36df19	-0.044646356
129	0xbd930df7	-0.07180398
130	0xbd5b5553	-0.05354817
131	0xbd083b14	-0.033259466
132	0x3d3be463	0.045872103
133	0xbd1c3c21	-0.03814328
134	0x3c2c26bc	0.010507282
135	0x3cee172c	0.029063784
136	0x3d9436f7	0.07237046
137	0x3c989331	0.018624874
138	0xbd24a4b8	-0.04019615
139	0x3c5bb9e3	0.013411018
140	0xbd5d7d37	-0.054074492
141	0xbd9fd186	-0.07803635
142	0xbdba9039	-0.091095395
143	0xbc2aaa17	-0.010416529
144	0x3c48204e	0.012214733
145	0xbc0f3eb1	-0.008742974
146	0x3d6d2651	0.05789787
147	0xbd8f6816	-0.07002275
148	0x3d2d8fe7	0.042373564
149	0x3d3a7406	0.045520805
150	0x3d6ad47d	0.05733155
151	0xbc913f24	-0.017730303
152	0x3c327deb	0.010894279
153	0x3caa5657	0.020793123
154	0x3d38d847	0.045128133
155	0x3d87a88f	0.06623947
156	0x3c420e95	0.011844297
157	0xbd6ad0c4	-0.057328
158	0x3cff6a73	0.031178689
159	0xbd34d355	-0.044146854
160	0x3d310fa1	0.043227796
161	0xbb9e8d9b	-0.004838658
162	0x3c589bbc	0.013220724
163	0x3d38c129	0.045106087
164	0xbcf675e9	-0.03008552
165	0xbc85e1df	-0.016343055
166	0xbd1d20f8	-0.03836152
167	0xbd956a08	-0.072956145
168	0xbdb003bc	-0.08594462
169	0x3d637bbc	0.055537924
170	0xbd6b1db1	-0.057401363
171	0xbd4c0873	-0.049812745
172	0x3d345b1d	0.044032205
173	0x3d8a3bda	0.06749697
174	0xbd4481b9	-0.047975276
175	0xbd9be0d7	-0.07611244
176	0x3d03155d	0.032002795
177	0x3c8e5291	0.017373355
178	0xbc373d41	-0.011184038
179	0xbd36f52f	-0.04466742
180	0x3bf0c330	0.007347487
181	0x3cd2de71	0.025740834
182	0xbd0c073f	-0.034186598
183	0xbda155a2	-0.07877661
184	0x3d2e95af	0.04262322
185	0xbbeccf7f	-0.007226884
186	0x3c6c2ae9	0.014414527
187	0xbc5e3a5b	-0.013563718
188	0xbd8d988b	-0.06913861
189	0x3d361c72	0.04446072
190	0xbd8887c6	-0.06666522
191	0x3d966813	0.07344069
192	0xbd81dd54	-0.06341043
193	0xbd822be5	-0.063560285
194	0x3d40af97	0.047042456
195	0x3d6bfbb7	0.0576131
196	0xbc671668	-0.014104463
197	0xbd7fc067	-0.06243935
198	0x3abff85e	0.0014646163
199	0xbd68eeda	-0.05686841
200	0x3d5b8fcc	0.053603932
201	0xbd15f082	-0.03660632
202	0x3d8a1e8f	0.0674411
203	0xbd7b3bfe	-0.06133651
204	0xbd1d344f	-0.038379963
205	0x3d09bc4c	0.03362684
206	0xbd8601c6	-0.06543307
207	0x3c8de400	0.017320633
208	0x3bfd0c62	0.0077224234
209	0x3ce37a50	0.027768284
210	0x3d08752d	0.033314873
211	0xbc103a12	-0.008802908
212	0x3da16739	0.07881016
213	0x3da5192d	0.080614425
214	0xbd0af9d0	-0.033929646
215	0x3c95e6d3	0.018298542
216	0xbd6a62e1	-0.057223205
217	0xbd061676	-0.032736264
218	0x3d1d24c5	0.038365144
219	0xbce6e6b7	-0.028186185
220	0x3cb55fe8	0.022140458
221	0xbd825bb5	-0.06365148
222	0x3d327a74	0.04357381
223	0xbd85d34a	-0.06534441
224	0xbc648447	-0.013947553
225	0x3cfbe2c6	0.030747782
226	0xbd3e328a	-0.046434917
227	0x3bdb73f4	0.0066971723
228	0x3dcc11cd	0.09964333
229	0x3b89b0a4	0.0042019654
230	0x3d46813b	0.048463088
231	0x3d85e1de	0.06537221
232	0xbda9405f	-0.08264231
233	0xbdad47c5	-0.084609546
234	0xbdbcd119	-0.0921957
235	0xbd71b7c2	-0.059013136
236	0x3b4bc1b4	0.0031090798
237	0x3d52a342	0.051425226
238	0x3dab0f4c	0.08352527
239	0xbd86c980	-0.06581402
240	0xbcd23377	-0.025659306
241	0x3c18f7a6	0.009336388
242	0xbcc58cff	-0.024115084
243	0x3d9718ea	0.07377799
244	0xbcc502cf	-0.02404919
245	0xbda8fb4f	-0.08251058
246	0x3cac3415	0.021020928
247	0xbcece1ad	-0.028916204
248	0x3b33622b	0.0027371745
249	0xbd7b08fa	-0.061287858
250	0x3c9480c3	0.018127805
251	0xbd8f1977	-0.06987279
252	0x3cec7a85	0.028867016
253	0x3d1dc9ca	0.03852252
254	0x3c885fe6	0.01664729
255	0x3a082dcc	0.00051948125

rnn.bias_ih_l0 f4 [600]
0	0xbc1c1699	-0.009526872
1	0x3d60f375	0.05491968
2	0xbca862cf	-0.020554928
3	0xbc68e46d	-0.014214617
4	0x3d9aa9c6	0.07551913
5	0xbd43a644	-0.047765985
6	0x3d48482c	0.048896953
7	0xbd1756d5	-0.036948044
8	0xbd805b21	-0.062673815
9	0x3d7fef29	0.06248394
10	0xbb653059	-0.0034971444
11	0xbccb6b48	-0.02483143
12	0xbba7e58d	-0.0051238
13	0x3db16dec	0.08663544
14	0xbd3f30f2	-0.046677537
15	0xbdb46135	-0.08807603
16	0x3b1c9b65	0.0023896333
17	0xbcea9d68	-0.02863951
18	0x3d460adb	0.048350196
19	0xbdaf29db	-0.08552905
20	0xbbe65cd7	-0.0070301103
21	0x3dd903fc	0.10596463
22	0x3d343f55	0.04400571
23	0xbc8bbf7c	-0.01705908
24	0x3d2986fb	0.041388493
25	0x3b62b6f0	0.0034593903
26	0xbd335249	-0.043779645
27	0x3d83b2c8	0.06430584
28	0x3d634fa9	0.05549589
29	0xbd7b8e4d	-0.061415005
30	0xbb8935e8	-0.0041873343
31	0xbc3e976e	-0.011632783
32	0xbdaf2be1	-0.08553291
33	0x3c8b622f	0.017014591
34	0xbd24bc7a	-0.040218808
35	0xbc186872	-0.009302245
36	0xbd22cd51	-0.039746586
37	0xbbc39c0c	-0.00596953
38	0xbcd92410	-0.026506454
39	0x3b010725	0.0019688096
40	0x3d8cd86c	0.06877217
41	0x3c247af4	0.01003908
42	0xbcc9c88f	-0.024631767
43	0x3c01211a	0.007881427
44	0x3c39cb5b	0.011339988
45	0x3d660fde	0.056167476
46	0x3d6cac03	0.05778123
47	0xbd79797f	-0.060906883
48	0x3d3aed5e	0.045636527
49	0x3cf31d12	0.029676948
50	0x3cf524af	0.029924719
51	0xbddd174a	-0.10795458
52	0x3e0dfac3	0.13865189
53	0xbd02e587	-0.031957176
54	0x3dc1b467	0.09458237
55	0x3da91e56	0.08257739
56	0xbd879fc2	-0.06622268
57	0xbd025eed	-0.03182881
58	0xbb906f56	-0.0044078035
59	0x3d193585	0.037404556
60	0xbd544ff2	-0.051834054
61	0x3c7ab543	0.015302005
62	0xbc9c5e0c	-0.019087814
63	0xbc8f5664	-0.017497249
64	0xbba30c58	-0.0049758367
65	0xbd7089bb	-0.0587251
66	0xbd76d341	-0.06026006
67	0x3d81e302	0.063421264
68	0xbcc9c43c	-0.024629705
69	0xbd94c205	-0.07263569
70	0x3d674d9c	0.0564705
71	0xbc9fa15c	-0.019486122
72	0x3cffed82	0.031241182
73	0xbd57a53e	-0.05264782
74	0xbca94e33	-0.020667171
75	0xbd14e7b9	-0.0363538
76	0xbbe868c4	-0.007092567
77	0xbcea4a39	-0.028599845
78	0xbb93d1af	-0.00451108
79	0xbd742685	-0.059607048
80	0xbd730895	-0.059334356
81	0x3d4045d6	0.0469416
82	0xbc6732cf	-0.014111235
83	0xbd859d4c	-0.065241426
84	0x3c41a2c8	0.011818595
85	0x3da37955	0.079821266
86	0xbd5ddd37	-0.054166045
87	0x3d939091	0.07205308
88	0x3d6fd06b	0.058548372
89	0xbd48d143	-0.049027693
90	0x3d5c91a6	0.05384984
91	0xbd90f79f	-0.0707848
92	0xbd283096	-0.04106196
93	0xbcbad975	-0.02280877
94	0x3c38c037	0.011276296
95	0xbc9e0cbd	-0.019293183
96	0x3c954c6b	0.018224915
97	0xbd5778b7	-0.052605357
98	0xbcf8f5f1	-0.030390712
99	0xbd9d365b	-0.07676383
100	0xbd817b26	-0.06322317
101	0xbd72dc76	-0.05929228
102	0x3d24cdde	0.040235393
103	0x3b82bae1	0.003989563
104	0x3c98d6e4	0.018657155
105	0xbc958d80	-0.018255949
106	0x3ce21e97	0.027602477
107	0xbc20570e	-0.00978638
108	0xbab6bdbb	-0.0013942042
109	0x3ddb11c6	0.106967494
110	0x3d8cf8f1	0.06883419
111	0xbca73d56	-0.02041499
112	0x3d8bf7d3	0.06834378
113	0x3ba4d6ef	0.005030505
114	0xbd7108e6	-0.058846377
115	0xbbeff07e	-0.00732237
116	0xbd44cbe1	-0.048045997
117	0x3cacfb4f	0.021115927
118	0xbd3f9ed1	-0.04678232
119	0x3d9c62dd	0.07636044
120	0xbd3208f2	-0.043465562
121	0xbd19b640	-0.037527323
122	0x3d970885	0.07374672
123	0x3d909a51	0.070606835
124	0x3d6557d6	0.05599197
125	0x3d914bff	0.07094573
126	0x3cfa5055	0.030555883
127	0xbd5e266d	-0.054235864
128	0xbd4d0941	-0.050057653
129	0xbce0ef7b	-0.027457943
130	0xbd72526d	-0.05916064
131	0x3cb072d6	0.021539133
132	0x3d8bf906	0.06834607
133	0x3d3b5ba4	0.045741692
134	0xbdb2d86b	-0.08732685
135	0x3cc4bc39	0.024015533
136	0xbae1ad4d	-0.0017217785
137	0xbcd9d772	-0.02659199
138	0x3bf9f719	0.0076283333
139	0xbcd43f47	-0.02590908
140	0x3c8a72e1	0.016900482
141	0x3d6385d4	0.05554755
142	0xbd22ec56	-0.03977617
143	0x3da60f76	0.08108418
144	0x3d899511	0.06717885
145	0xbd195cbb	-0.03744195
146	0x3b340cde	0.002747349
147	0xbd91b6e1	-0.071149595
148	0xbd1d2464	-0.038364783
149	0x3d1e2f1c	0.038619146
150	0xbc34fe00	-0.011046886
151	0xbd6a3237	-0.057176795
152	0xbce72956	-0.028217953
153	0xbd21ec71	-0.03953213
154	0x3d183525	0.037160058
155	0x3d10d3ec	0.035358354
156	0xbd631d86	-0.055448078
157	0xbd133303	-0.03593732
158	0x3c0193ce	0.007908775
159	0xbd4e29d5	-0.050332863
160	0xbd37d7f3	-0.04488368
161	0xbd86381d	-0.065536715
162	0x3d902ca7	0.07039767
163	0x3d3b5cd8	0.04574284
164	0xbd0846ee	-0.03327077
165	0xbb970041	-0.0046081846
166	0x3b5d6a2e	0.0033785212
167	0xbbf5600d	-0.007488257
168	0x3db83bb7	0.08995765
169	0xbc9966ad	-0.018725717
170	0xbd0e3b4d	-0.034724522
171	0x3cf37824	0.029720373
172	0x3d65fdbe	0.05615019
173	0x3d12e8ea	0.035866655
174	0x3c14f7d5	0.009092291
175	0x3d63065e	0.055425994
176	0xbd5894e1	-0.052876357
177	0x3e09867e	0.13430211
178	0xbd0b8894	-0.034065798
179	0x3dc3b858	0.09556645
180	0x3d4f8fe2	0.050674327
181	0x3d214a62	0.039377578
182	0x3dbd3adc	0.09239742
183	0x3d37a1bd	0.04483198
184	0x3d8dd9df	0.06926321
185	0x3ce8b4e4	0.028406568
186	0x3d7646bf	0.060126062
187	0xbd3a9883	-0.045555603
188	0x3d2c1b12	0.042018004
189	0x3d4d6ac0	0.050150633
190	0xbb3239a1	-0.0027194994
191	0xbc65dee5	-0.014030193
192	0x3d5c5ce2	0.053799517
193	0x3cf05ed1	0.029342087
194	0x3d09b405	0.033618946
195	0xbbd1b2c2	-0.0063994834
196	0x3be99fba	0.0071296366
197	0x3c2d1426	0.010563886
198	0x3cc4a658	0.0240051
199	0x3d662cc7	0.056195047
200	0x3c42f8c9	0.011900135
201	0xbe5c1407	-0.21492015
202	0xbe56879a	-0.20950165
203	0xbe2fd52b	-0.17171161
204	0xbe7c0aba	-0.24613467
205	0x3d885aeb	0.06657966
206	0x3d562afe	0.052287094
207	0xbe26bad5	-0.16282208
208	0xbd1e594b	-0.038659375
209	0xbc3b7cee	-0.01144336
210	0x3d8279cd	0.06370888
211	0xbe42aa62	-0.19010308
212	0xbdba7151	-0.09103645
213	0xbe093133	-0.13397674
214	0xbd96f205	-0.0737038
215	0xbe6993bb	-0.22810261
216	0xbd864794	-0.06556621
217	0xbe124f17	-0.14287983
218	0xbd9e6d09	-0.077356406
219	0xbdad743e	-0.08469437
220	0xbe287a60	-0.16452932
221	0xbdfee375	-0.12445728
222	0xbe5919d1	-0.21201254
223	0xbe55d9b7	-0.20883833
224	0x3d702582	0.05862952
225	0xbded002d	-0.11572299
226	0xbd7e1eb8	-0.062041014
227	0xbd933e60	-0.071896315
228	0xbd899aa4	-0.067189485
229	0xbe1e84f0	-0.15480399
230	0x3d5e438d	0.05426364
231	0x3db1b060	0.08676219
232	0xbd906394	-0.07050243
233	0xbd818bc7	-0.063254885
234	0x3c96d6b1	0.01841292
235	0xbd3f56d0	-0.04671365
236	0xbd9e7e9b	-0.07738992
237	0xbdf3b936	-0.119005606
238	0xbce2b5b8	-0.02767454
239	0xbe2ba649	-0.16762652
240	0xbe0e86ac	-0.1391856
241	0xbe205866	-0.15658721
242	0x3d2397f0	0.03993982
243	0xbd2e420e	-0.042543463
244	0xbdfbeb53	-0.12300744
245	0x3e06dcc9	0.1317016
246	0xbe01c703	-0.12673573
247	0xbd880642	-0.066418186
248	0xbd17243b	-0.036899786
249	0xbe44e319	-0.19227256
250	0xbe4476d0	-0.19185948
251	0xbcd00ecd	-0.025397683
252	0xbd982edb	-0.07430812
253	0xbd58296d	-0.05277388
254	0xbdc85432	-0.09781684
255	0x3dc77664	0.09739378

rnn.bias_hh_l0 f4 [600]
0	0xbcdbe825	-0.026844094
1	0x3c2465bf	0.010034024
2	0x3cb3a29c	0.021928124
3	0x3d356824	0.04428877
4	0x3d875601	0.06608201
5	0xbd38c4d1	-0.045109574
6	0xbd7b070c	-0.061286017
7	0xbd97e757	-0.074171714
8	0xbc9dc544	-0.019259103
9	0xbccaa5d6	-0.02473728
10	0xbd11fc44	-0.03564097
11	0xbd41b9c4	-0.0472963
12	0x3d11db0a	0.035609283
13	0x3d95487d	0.07289217
14	0xbd0adfeb	-0.03390495
15	0xbdccf7d2	-0.100082055
16	0x3cdcd20c	0.026955627
17	0xbd17bc48	-0.037044793
18	0xbd08bc2a	-0.033382572
19	0xbd72f9a3	-0.059320103
20	0xbd5b40ce	-0.0535286
21	0x3c8e7bc9	0.01739301
22	0x3d0e8049	0.03479031
23	0x3d0b8d28	0.034070164
24	0xbbfcee73	-0.007718855
25	0x3c987c28	0.01861389
26	0x3d39c816	0.045356832
27	0x3d623ad0	0.05523187
28	0xbd245e71	-0.04012913
29	0x3c9fe702	0.019519333
30	0x3d82d62a	0.06388505
31	0xbcf93e08	-0.030425087
32	0xbce53eca	-0.027984042
33	0xbd762e6f	-0.060102876
34	0xbd9f9520	-0.07792115
35	0xbd80818f	-0.06274711
36	0x3d45390d	0.04815011
37	0xbd6fa38c	-0.05850558
38	0xbc19ec36	-0.009394696
39	0xbcbe7c57	-0.02325265
40	0x3cbd9e17	0.023146672
41	0xbd9217e3	-0.07133462
42	0xbb9b409e	-0.0047379276
43	0x3d57222f	0.052522834
44	0xbd3b172c	-0.045676395
45	0xbd063492	-0.03276498
46	0xbd594f68	-0.053054243
47	0xbc2e6bed	-0.010645849
48	0x3c85ad8f	0.01631811
49	0x3d8a06ef	0.06739604
50	0x3bdca01e	0.0067329546
51	0xbdd88805	-0.10572819
52	0x3d9a1477	0.075234346
53	0xbd179e33	-0.037016105
54	0x3c848181	0.016175034
55	0xbca2a47f	-0.019853828
56	0xbc91124b	-0.017708918
57	0x3d970316	0.073736355
58	0xbcce14a1	-0.025156321
59	0x3d3d634b	0.04623727
60	0xba97f624	-0.0011593741
61	0x3b9dfd03	0.004821421
62	0xbd393dc5	-0.045224924
63	0xbc0cb47e	-0.008587955
64	0xbd48b8ef	-0.04900449
65	0x3cf937db	0.030422142
66	0xbc1b5c85	-0.009482508
67	0xbc07dc93	-0.008292335
68	0xbcad17ab	-0.02112945
69	0xbd8e5e0c	-0.06951532
70	0xbc0efbc3	-0.008727017
71	0x3cf93ead	0.030425394
72	0x3d0b49a9	0.034005795
73	0x3d17dc04	0.037075058
74	0xbd34461e	-0.04401218
75	0xbd06e6ee	-0.032935075
76	0x3bf4072f	0.0074471454
77	0xbcf8cb3a	-0.030370343
78	0xbd15f50f	-0.03661066
79	0x3c961a41	0.018323066
80	0xb99c3d41	-0.00029800276
81	0x3cf29c74	0.029615618
82	0x3c86067b	0.016360512
83	0x3c15c77f	0.009141802
84	0x3c44c28b	0.012009273
85	0xbb956040	-0.004558593
86	0x3d4eac2a	0.050457157
87	0x3c345d95	0.01100864
88	0x3cefeadf	0.0292868
89	0x3d1298b7	0.03579017
90	0x3da48916	0.080339596
91	0xbcf0451f	-0.029329835
92	0xbd2e7900	-0.042595863
93	0xbd819d35	-0.06328813
94	0xbcc269d1	-0.023732098
95	0x3d349c8d	0.04409461
96	0xbccbee27	-0.024893833
97	0xbcade5b7	-0.0212277
98	0xbd67019d	-0.056398023
99	0xbda403ff	-0.08008575
100	0xbcc78c8a	-0.024359006
101	0x3d98749a	0.07444115
102	0xbc3b2186	-0.011421567
103	0xbd906d2c	-0.07052073
104	0x3d075f99	0.033050153
105	0x3c2d36e1	0.010572166
106	0x3d4bb335	0.049731452
107	0xbba067a7	-0.004895169
108	0xbd48be20	-0.049009442
109	0x3b0e8d7c	0.0021751812
110	0x3bfdf46a	0.0077500837
111	0xbd0d319b	-0.034471136
112	0x3d4fbf0f	0.050719317
113	0xbd0e0cae	-0.03468006
114	0xbd6ecb71	-0.058299486
115	0x3ccd81d0	0.025086313
116	0xbd5b95f7	-0.053609814
117	0x3d905123	0.070467256
118	0x3d35478e	0.044257693
119	0xbc865ff5	-0.016403178
120	0xbc44e046	-0.012016362
121	0x3cf59abd	0.029981012
122	0x3d72909f	0.059219953
123	0xbd23956a	-0.039937414
124	0xbd202b2d	-0.039103676
125	0x3cf0d9fb	0.029400816
126	0x3d2b2a6b	0.0417885
127	0xbda4ee39	-0.0805325
128	0x3cbb5da9	0.02287181
129	0x3bf30a24	0.0074169803
130	0xbd461a04	-0.048364654
131	0xbbcbfd9e	-0.006225302
132	0x3d71e752	0.059058495
133	0x3d3bf565	0.045888323
134	0xbb05ca28	-0.0020414684
135	0x3d2031a1	0.03910983
136	0xbce24086	-0.027618658
137	0xbd74941b	-0.059711557
138	0xbdc071ad	-0.09396682
139	0x3ceb5062	0.028724853
140	0x3d541537	0.051778045
141	0x3d4db1a9	0.050218258
142	0x3cde9c49	0.027174132
143	0xbc277d1e	-0.010222701
144	0xbd5d54d6	-0.054035984
145	0x3d4c5d68	0.049893767
146	0x3d66db4c	0.05636148
147	0xbda6aa0b	-0.08137902
148	0x3c7ac1bf	0.015304982
149	0xbcc9bfe6	-0.024627637
150	0x3d854814	0.065078884
151	0xbd7da70c	-0.061926886
152	0x3d86525f	0.0655868
153	0xbd3459ed	-0.044031072
154	0xbd955dd5	-0.07293288
155	0xbd4f38c9	-0.050591264
156	0x3bd569ad	0.0065128417
157	0xbd68327a	-0.056688763
158	0xbd58ce9b	-0.05293141
159	0xbd4b3421	-0.04961026
160	0x3cec1fad	0.028823698
161	0xbd7c23d1	-0.061557595
162	0x3d89284a	0.06697138
163	0x3d25d97e	0.04049062
164	0x3c49af3f	0.012309848
165	0xbd593bcf	-0.053035554
166	0x3d843267	0.06454926
167	0xbccd3632	-0.025050256
168	0xbaacc893	-0.0013182334
169	0xb9179838	-0.00014457188
170	0xbd51d6d5	-0.05123027
171	0x3ca187c1	0.019718053
172	0x3d7d3268	0.06181565
173	0x3d276e4e	0.04087668
174	0x3d582fb8	0.052779883
175	0xbc85e816	-0.016346019
176	0x3c247b24	0.010039125
177	0x3e0894e8	0.13338053
178	0x3d6b5ba4	0.057460442
179	0x3de18cf7	0.11013215
180	0x3cd63b72	0.026151393
181	0x3d8414c6	0.06449275
182	0x3af004f9	0.0018312029
183	0xba7f0289	-0.0009727856
184	0x3d2e02be	0.042483084
185	0xbd2107d9	-0.039314125
186	0xbc28abdb	-0.01029488
187	0xbd1532d2	-0.03642542
188	0xbca6f9a9	-0.02038272
189	0x3c859066	0.016304206
190	0x3d016141	0.03158689
191	0xbd815cd8	-0.06316537
192	0x3c4644a4	0.012101326
193	0x3d71be7c	0.05901955
194	0x3d831779	0.064009614
195	0x3ca22bac	0.019796215
196	0xbd81dadf	-0.063405745
197	0xbb6534c7	-0.0034974085
198	0xbd442c41	-0.047893766
199	0x3d9b25ac	0.07575545
200	0xbd0ff699	-0.035147283
201	0xbe252fc6	-0.16131505
202	0xbe38d249	-0.18048967
203	0xbe3244c0	-0.17409039
204	0xbe6da03a	-0.23205653
205	0x3c2595a4	0.010106478
206	0xbd2ff815	-0.0429612
207	0xbd0fb2fa	-0.035082795
208	0x3d2b8622	0.041875966
209	0xbbc8e30a	-0.006130581
210	0x3d8d53cf	0.06900751
211	0xbe2baa41	-0.16764165
212	0xbdaebb04	-0.08531764
213	0xbdb390ec	-0.08767876
214	0xbe21730b	-0.15766542
215	0xbe076e8b	-0.13225763
216	0xbd4c50a5	-0.049881596
217	0xbe15bc55	-0.14622624
218	0xbde04f14	-0.10952583
219	0xbde054ba	-0.1095366
220	0xbd5ff98f	-0.054681357
221	0xbe3ba79a	-0.18325654
222	0xbe576799	-0.21035613
223	0xbe32bd9e	-0.17455146
224	0x3daf64c8	0.085641444
225	0xbddee0ad	-0.10882697
226	0xbe2dc981	-0.16971399
227	0xbe0a8861	-0.13528587
228	0xbde559eb	-0.11198791
229	0xbd9576bc	-0.072980374
230	0x3c1bb97e	0.009504674
231	0xbc6d8b6f	-0.014498576
232	0xbe093946	-0.13400754
233	0xbe1465cc	-0.14491957
234	0x3d8ae9bc	0.067828625
235	0xbce7500a	-0.028236408
236	0xbdecd0fa	-0.115632966
237	0xbe22c8dc	-0.15896934
238	0xbdfec12d	-0.12439189
239	0xbe11f17f	-0.1425228
240	0xbe257ac9	-0.1616012
241	0xbd36b159	-0.044602726
242	0x3ced9d54	0.029005684
243	0xbded0d60	-0.11574817
244	0xbc8a2f50	-0.016868263
245	0x3db1c46e	0.08680044
246	0xbd5e16ef	-0.05422109
247	0xbcab2007	-0.020889295
248	0xbde3c0e9	-0.11120779
249	0xbe75f5bc	-0.24019521
250	0xbdadb93b	-0.084825955
251	0xbd3d4afb	-0.046214085
252	0x3cf862ac	0.030320488
253	0xbcfa9ea0	-0.030593216
254	0xbcaa313a	-0.020775426
255	0x3d368a1c	0.044565305

fc.weight f4 [1, 200]
0	0xbde79ceb	-0.113092266
1	0x3dd4fe0e	0.104000196
2	0xbda3d336	-0.0799927
3	0x3dd78311	0.10523046
4	0x3dec4906	0.115373656
5	0xbb3ad251	-0.0028506706
6	0x3d537337	0.05162355
7	0x3de249ac	0.11049208
8	0xbce43221	-0.027855935
9	0xbd9d22a4	-0.07672623
10	0x3cecb159	0.02889316
11	0xbd970129	-0.07373268
12	0xbda9b7ed	-0.08287034
13	0xbc5aa8d2	-0.013345914
14	0x3db6f6e1	0.08933807
15	0x3d39c6a9	0.045355473
16	0x3c99bae3	0.018765872
17	0x3dc3c8f1	0.09559811
18	0xbdb757ba	-0.089522794
19	0x3dcf0051	0.10107482
20	0x3db3510a	0.08755691
21	0x3d9f98fd	0.07792852
22	0xbddfa4de	-0.10920118
23	0x3e02863b	0.12746517
24	0x3b9da406	0.004810813
25	0xbdbbd2d1	-0.091710694
26	0x3e1206e6	0.14260444
27	0xbddb34d2	-0.10703434
28	0xbdf8ce2f	-0.121487014
29	0xbda6d7f8	-0.081466615
30	0x3aec026a	0.001800609
31	0x3d1c5304	0.038165107
32	0x3daa6859	0.08320684
33	0x3deabf61	0.11462284
34	0xb9e41a8f	-0.00043507337
35	0x3cae7b64	0.021299072
36	0x3d63e2eb	0.055636328
37	0xbdcdd8e4	-0.10051134
38	0xbdba00f9	-0.09082217
39	0x3da0fe7b	0.07861038
40	0x3d95255e	0.07282518
41	0x3d66e8b9	0.056374285
42	0xbd809b60	-0.062796354
43	0x3d882b7d	0.0664892
44	0x3d3beaa0	0.045878053
45	0x3d97438f	0.07385933
46	0xbd8f07dc	-0.06983921
47	0xbd86a29b	-0.06573983
48	0xbd8cf35e	-0.06882356
49	0x3de72a8d	0.11287413
50	0x3daa62aa	0.083196
51	0x3e04dfce	0.12976
52	0xbdf3d73c	-0.11906287
53	0xbd842800	-0.06452942
54	0xbd2e371e	-0.042533033
55	0xbbd26a7d	-0.006421386
56	0x3d0c185f	0.03420293
57	0xbddcc8ba	-0.10780473
58	0xbd7ef253	-0.062242817
59	0xbda9e9f3	-0.082965754
60	0x3c1fa7bd	0.009744582
61	0x3dd6e8f1	0.10493649
62	0x3d20a71b	0.039221864
63	0x3d6e32ed	0.058154035
64	0x3da13ff9	0.0787353
65	0x3d6e4166	0.058167838
66	0x3d74a8d3	0.059731316
67	0x3dd958a0	0.10612607
68	0xbdd4c0bb	-0.10388323
69	0xbcccda7f	-0.02500653
70	0xbd1a408b	-0.03765921
71	0x3dde4a5a	0.10854025
72	0xbd8c4302	-0.06848718
73	0x3de09e0a	0.109676436
74	0xbdd05c55	-0.10173861
75	0xbd8178aa	-0.06321843
76	0x3d3e9788	0.04653123
77	0x3c857b77	0.016294224
78	0x3d1711aa	0.03688208
79	0x3d42cead	0.047560383
80	0x3d5e17e1	0.05422199
81	0x3df9f1d6	0.1220433
82	0xbb885b32	-0.004161262
83	0x3dad3940	0.08458185
84	0xbde8767c	-0.11350724
85	0x3db3e5d8	0.087840736
86	0x3ce4917b	0.027901402
87	0x3d971913	0.073778294
88	0xbdce0a22	-0.100605264
89	0xbbe9d3be	-0.0071358373
90	0x3dc27534	0.09495011
91	0x3daf61ae	0.08563553
92	0x3cecdc9a	0.028913785
93	0x3d23cde2	0.039991267
94	0x3dca37ec	0.098739475
95	0xbdbbc365	-0.09168128
96	0x3d482794	0.04886587
97	0xbd6140d8	-0.05499348
98	0x3de6383d	0.11241195
99	0xbd2ad2af	-0.04170483
100	0x3d96887c	0.07350251
101	0xbdde5e36	-0.10857813
102	0x3c8550b5	0.016273836
103	0x3d4c7aba	0.04992173
104	0xbccbc648	-0.024874821
105	0xbdd6f014	-0.1049501
106	0xbde2228b	-0.11041745
107	0xbdaf347b	-0.08554932
108	0xbdc59d32	-0.09649123
109	0xbdbb539f	-0.09146809
110	0x3d5f80d4	0.05456622
111	0x3e0716ae	0.13192245
112	0xbdd5cf32	-0.1043991
113	0x3bef7838	0.0073080324
114	0xbde60e9e	-0.11233257
115	0x3dbe5060	0.09292674
116	0x3d5a54b5	0.05330344
117	0xbc8a9f47	-0.016921652
118	0xbd648564	-0.055791274
119	0x3d92b30d	0.071630575
120	0x3ae63174	0.0017562346
121	0xbde50939	-0.111834
122	0xbd8dbf69	-0.06921274
123	0xbdc5d86f	-0.09660422
124	0xbdcb299c	-0.09920046
125	0xbc51b66f	-0.012799843
126	0xbca428bd	-0.020038957
127	0x3db88e40	0.09011507
128	0x3deb04ee	0.1147555
129	0x3d28b142	0.04118467
130	0xbe010e7c	-0.12603182
131	0xbca6c798	-0.020358846
132	0x3e03ba1c	0.12863964
133	0x3dd121c9	0.10211522
134	0x3d2f8662	0.042852767
135	0x3d6a9068	0.057266623
136	0xbd9698e9	-0.07353384
137	0x3e104d52	0.14091995
138	0xbe10750a	-0.14107147
139	0xbe0580be	-0.13037392
140	0xbe03aa1f	-0.12857865
141	0xbd80934a	-0.06278093
142	0x3e04af31	0.12957455
143	0x3da5c2b5	0.08093778
144	0x3d6b6de0	0.05747783
145	0x3dadb072	0.0848092
146	0xbcc2c3c6	-0.023774993
147	0xbcfadec7	-0.030623807
148	0x3c8dad0e	0.017294433
149	0x3de8435c	0.11340973
150	0x3c8ee954	0.017445244
151	0xbda0667e	-0.07832049
152	0xbddc3481	-0.10752202
153	0xbd8b55ba	-0.068034604
154	0xbe0cb397	-0.13740383
155	0xbdd08f2c	-0.10183558
156	0x3c94d76c	0.018169127
157	0x3def6d44	0.11690763
158	0x3d93e0d4	0.07220617
159	0x3da1cbb0	0.079001784
160	0x3d7c54ab	0.061604183
161	0x3deba641	0.1150632
162	0xbd8e0c7e	-0.069359764
163	0xbdf90651	-0.12159408
164	0x3de6a679	0.11262221
165	0x3c036b3e	0.008021174
166	0x3ce95c88	0.028486505
167	0xbce5f945	-0.028072963
168	0xbdc9393f	-0.09825372
169	0xbbf52159	-0.007480782
170	0xbddfc733	-0.10926666
171	0x3dc8c794	0.098036915
172	0xbcfcaca9	-0.03084405
173	0xbdea9342	-0.114538684
174	0x3dfb4aa2	0.122700945
175	0x3dfa3c61	0.122185476
176	0x3c9281f5	0.017884234
177	0x3dad9059	0.08474798
178	0xbde84c99	-0.11342735
179	0x3d8ec9aa	0.06972058
180	0x3d85a153	0.06524911
181	0xbde9673d	-0.11396644
182	0xbdabd626	-0.08390455
183	0xbdd4fdf3	-0.103999995
184	0x3dba6479	0.09101195
185	0x3d930c47	0.07180076
186	0xbda72ac0	-0.08162451
187	0x3dad125b	0.08450767
188	0x3d7ccf32	0.061721034
189	0xbdbf5537	-0.09342425
190	0x3dd262fd	0.10272787
191	0xbbbbf054	-0.0057354365
192	0xbd126166	-0.035737418
193	0x3d168333	0.036746215
194	0x3dd53f42	0.10412456
195	0xbdaac268	-0.08337861
196	0xbdf77b0c	-0.12084016
197	0xbd7c2d22	-0.06156648
198	0xbc1acf85	-0.009448891
199	0x3c9a3c41	0.01882756
