models/simple_attn_opt.pth (torch, 771389 bytes, 7 tensors)

fc_key.weight f4 [128, 499]
000000 fc 3a 8f 3e 4d 59 88 bd d0 f4 b6 3d 72 c5 71 3c
       0.2797469 -0.06657658 0.08933413 0.014756547
000010 03 8d 18 bd 50 9f fd bd 40 66 11 3e 60 37 66 3e
       -0.037243854 -0.12383902 0.14199162 0.22482061
000020 3f 0b 8d bd c9 e3 c1 bc d9 e6 91 bd 62 65 41 be
       -0.06886911 -0.023668187 -0.07124109 -0.1888633
000030 e3 cb 85 be d3 f4 2b bd db 3e c2 bc ac ab 67 3d
       -0.26132116 -0.04198153 -0.023711612 0.056560203
000040 ee cf 0a 3d f0 97 e2 3d 7e e3 b2 bd ce 54 9b 3d
       0.033889703 0.11064136 -0.08734797 0.075845346
000050 ac bf e3 bb fd 6d 7a 3c 7f 55 d7 3c 59 0b 95 3d
       -0.0069503393 0.015285012 0.026285885 0.07277555
000060 ab b0 28 3e 59 03 07 3d 75 f8 f9 bd f5 46 9f bd
       0.16473643 0.032962177 -0.122055925 -0.07777206
000070 e7 8d 31 bd f7 ff 12 bd 3d 0f ae bd 29 ed df bd
       -0.04334822 -0.03588864 -0.08499 -0.109339066
000080 0a 07 ac bd e0 55 08 3e b0 a0 c9 3d b9 a1 9a 3d
       -0.0839978 0.13314009 0.09845102 0.075503774
000090 51 dc 30 be f2 aa 2a 3e 65 e1 1f 3e fc fe 40 3e
       -0.17271544 0.16666773 0.15613325 0.18847269
0000a0 85 d1 12 3e 71 f3 05 bd 83 a0 eb bd f2 33 28 be
       0.14337738 -0.032702867 -0.115052246 -0.16426066
0000b0 cb dd bb bd c4 f4 a5 3c 4e 1b e8 3d b3 e1 d4 3d
       -0.09173163 0.020258315 0.11333333 0.10394611
0000c0 50 62 31 be 56 62 ee bd 77 c6 e1 3d 14 9d 4d 3d
       -0.1732266 -0.1163985 0.11024182 0.05019863
0000d0 b2 36 6a bd 82 34 3d 3d 12 8a 14 3e da 30 8f 3d
       -0.057181068 0.046192653 0.14505795 0.069917396
0000e0 6e f0 13 3e 7d 2a 0e be af a7 2b 3e 95 7c 85 bd
       0.14447185 -0.13883395 0.16763185 -0.06517903
0000f0 64 39 33 3e 92 c1 30 bc 44 3f 53 bd 11 57 4b 3c
       0.17502362 -0.010788338 -0.051574007 0.012410895
000100 75 a6 f1 bd c4 19 1c bd 94 19 94 bd 8e b0 97 3d
       -0.11799327 -0.03811051 -0.07231441 0.07406722
000110 cd 21 16 3e d9 b8 48 3e 53 09 f5 bb 6b 9f 06 3d
       0.14661331 0.19601764 -0.007477918 0.032866877
000120 61 e2 15 3d 73 f3 3e bc b7 41 09 3d 3a 5f af ba
       0.036592845 -0.0116547225 0.033509936 -0.001337982
000130 2f 7d 2c 3e c3 85 1d be 4d eb 0f 3e 41 48 8f 3e
       0.16844629 -0.15383057 0.14054604 0.27984813
000140 85 fb 68 3c 00 83 53 bd 9a 9e f9 3d 90 9f 81 be
       0.014220123 -0.051638603 0.12188454 -0.2531705
000150 99 66 24 3d 00 57 66 3e 1a fc 3c 3d 98 b0 50 be
       0.040136907 0.22494125 0.04613886 -0.20379865
000160 86 b7 8a bb 20 54 7a 3c 60 3d 91 3d 67 83 0b be
       -0.0042333035 0.015278846 0.070917845 -0.13624345
000170 e8 1d 00 be d0 61 0a 3e d1 d7 8b bd a8 d3 88 bb
       -0.12511408 0.13513875 -0.06828273 -0.004175622
000180 ac 9d 97 3c 06 ed fc bc b4 0c 82 3c eb 35 ad bd
       0.018507801 -0.03087474 0.015875198 -0.0845755
000190 6e 75 ea 3d d7 3b ce 3d 3f c4 73 bd 8a 59 02 be
       0.11448179 0.10070007 -0.059513327 -0.12729469
0001a0 14 cf 72 bd 71 ef 13 bd 4a 7a 97 3d 41 e1 21 bb
       -0.059279516 -0.03611702 0.07396372 -0.0024700912
0001b0 c5 0f 8c bd 8d 98 06 be 3a df c7 bc 5c c2 91 3c
       -0.06838945 -0.13144131 -0.024398435 0.017792873
0001c0 28 e0 b3 bd b6 b9 ca bd d4 41 a5 bd 8c e2 30 3d
       -0.08782989 -0.09898703 -0.08069196 0.043184802
0001d0 71 f5 71 3d ab d5 02 3e 92 ac 10 bd 87 98 49 be
       0.05907196 0.1277682 -0.035320826 -0.19687091
0001e0 cd 2a a4 bd 15 fa ad 3d 7f e8 97 3c 8e 56 b4 bd
       -0.08015976 0.08494965 0.01854348 -0.088055715
0001f0 6d 8e 77 3d f6 4a 1d bd fd 96 6a 3d fc 60 64 be
       0.060438562 -0.038401566 0.0572729 -0.22302622
000200 a0 d9 84 3d c2 08 4d 3d 0c 86 25 3e cc 3c e2 3b
       0.06486821 0.05005718 0.16164416 0.00690422
000210 82 cc 2d 3e 96 b7 b4 3d d7 c4 17 bc 11 58 54 bd
       0.16972545 0.08824079 -0.009263239 -0.0518418
000220 d6 94 0d 3d 59 7f 04 be d4 9d 39 3e f6 46 9e bd
       0.03456577 -0.12939204 0.18126613 -0.077283785
000230 6e e1 df bd ee e9 24 3e ed 2c b8 3d 4c 87 2d 3e
       -0.10931669 0.16104862 0.08992944 0.16946143
000240 3f 44 db bd e3 9a e6 3e 60 aa 4f 3b 39 f1 31 3d
       -0.10706376 0.45040044 0.0031687245 0.04344294
000250 e3 4c 72 bd 97 dc 33 3d f2 fa 29 bd c3 2d 2f bd
       -0.059155356 0.043911543 -0.041499086 -0.04276825
000260 64 88 be bd 00 b7 a8 bd b2 4c ad bb 6e 90 32 3e
       -0.09303358 -0.082380295 -0.005288684 0.17437908
000270 60 ff 34 bd 73 a1 8b bb 3b 71 9f 3d b4 3b 77 3e
       -0.044188857 -0.0042611896 0.07785269 0.24143869
000280 ee 66 30 bd 72 91 45 3e e7 82 79 3c 43 f3 92 3c
       -0.04306691 0.19293764 0.015228963 0.017938262
000290 80 70 9e 3d 7a e5 a2 3c ea de 31 bd 80 be 3c 3d
       0.077363014 0.019884814 -0.043425478 0.046080112
0002a0 25 34 2f 3e 71 37 47 3d 2e e0 69 bd bc 3f c8 bd
       0.17109735 0.048636857 -0.05709856 -0.09777781
0002b0 a3 d3 8f bd ea 75 7e be d3 0a 81 3d a1 ca 6e bc
       -0.070227884 -0.24849668 0.06300893 -0.014574678
0002c0 a6 6e 6e be 88 11 fb 3d 08 47 3c be 2e be ee bc
       -0.23284397 0.12259203 -0.18386471 -0.02914342
0002d0 42 49 97 3c 22 94 58 be 9b e3 bf bc fa aa 14 3e
       0.01846755 -0.21150258 -0.02342396 0.14518347
0002e0 c0 d0 70 3e 7c c8 5d be 89 a4 54 3d e7 9b a4 3d
       0.23517132 -0.2165851 0.051914725 0.080375485
0002f0 70 b0 79 3d 15 81 3a bd ff 4c 2d be e2 71 34 be
       0.06095928 -0.04553326 -0.16923903 -0.17621568
000300 2f 6c 41 be 0b 49 e0 3c d0 69 2a 3e 7d 77 3a 3e
       -0.18888925 0.02737858 0.16641927 0.18209644
000310 c6 75 3a 3d 6c 47 ab bc ee ac 53 bb 2c 5c 41 be
       0.045522474 -0.02090808 -0.003229912 -0.18882817
000320 f4 b8 29 be 60 5e bf 3d 8a c9 6f be cb f0 50 be
       -0.1657446 0.093441725 -0.23416725 -0.20404355
000330 96 0c 2b 3d c3 12 36 be 4e 72 e0 bd 1e 41 28 3e
       0.04176005 -0.17780595 -0.10959302 0.1643109
000340 f6 e9 94 3e 17 9b c8 3d 8c 03 19 3e 14 1a eb bd
       0.29084748 0.09795206 0.1494276 -0.114795834
000350 6c 25 84 bc 53 3f 08 3e 21 16 1c be 82 f3 de 3d
       -0.016131125 0.13305406 -0.15242817 0.10886289
000360 07 fd fc bd 8b 66 27 3e b3 32 84 3d 97 1b 1e bd
       -0.12352949 0.16347711 0.064549826 -0.03860053
000370 9a 7d d4 3d f5 82 4c be 69 3e 3e be 5f b1 38 3d
       0.10375519 -0.19971831 -0.18578495 0.04509103
000380 3e 45 e0 bd 5c 88 b8 3c f1 37 cc be 55 04 4d be
       -0.10950707 0.022525959 -0.3988643 -0.20021184
000390 50 ab 25 be e8 f2 c8 bd c7 de a4 bd 73 37 23 bd
       -0.16178632 -0.09811956 -0.08050304 -0.039847802
0003a0 56 59 a0 3c 97 ac 26 3e 33 ae 13 bd ae 38 5a be
       0.019573849 0.16276775 -0.0360548 -0.21310684
0003b0 12 64 e2 bd ee c7 b8 bc 5b b2 c0 bb cf 7a 1c be
       -0.11054243 -0.022556271 -0.0058806366 -0.15281223
0003c0 20 b0 40 3e e9 9a a4 3e fc af f9 bd 34 34 13 be
       0.18817186 0.32149437 -0.121917695 -0.14375383
0003d0 86 05 19 bd 3b 51 1f 3c 36 7e 11 3e 78 43 8d be
       -0.037358783 0.009723957 0.14208302 -0.27590537
0003e0 ec 09 c2 ba 9e ee ed bd 76 b8 7a 3d 35 9c 87 3d
       -0.0014803982 -0.11617778 0.061211072 0.06621591
0003f0 98 b7 01 3e 19 d7 14 3c a3 97 4e bd bd b4 28 3c
       0.12667692 0.009084486 -0.05043758 0.010296998

fc_key.bias f4 [128]
000000 18 7e be 3d bb 5b be 3d 38 bd af 3d db ec b4 3d
       0.09301394 0.0929484 0.085810125 0.08834239
000010 f6 d3 25 3e 80 1f f0 3d bf 17 b9 3d 77 7c 1c be
       0.16194138 0.11724758 0.09037732 -0.15281855
000020 9b ef b8 3d 32 e9 84 bc 99 5b 0b be 6d 20 aa 3d
       0.09030076 -0.016224477 -0.1360916 0.08306966
000030 87 e3 a3 3e 53 9c 8c bd 48 00 0f 3d 43 ae 26 3e
       0.32009527 -0.06865754 0.034912378 0.16277413
000040 48 a1 77 be da 68 38 bd 44 8e 04 3e b4 ae 55 bd
       -0.24182618 -0.04502187 0.12944895 -0.052168563
000050 47 6a 7c bd 4b d7 ad be 25 7e 1d bd f1 1c 50 3d
       -0.06162479 -0.33953318 -0.03845038 0.05080885
000060 eb d1 8b bd 8e 30 45 ba 63 ce ee bd 91 d9 99 bd
       -0.06827148 -0.0007522189 -0.11660459 -0.075122006
000070 6e 10 d7 be aa df 6e 3d 1f 5c 05 3f 30 44 1b bd
       -0.42004722 0.05831877 0.5209369 -0.037906826
000080 99 40 c4 3d ad 33 a5 3d 05 c5 93 3d ac 02 40 3e
       0.095826335 0.08066497 0.07215313 0.18751019
000090 eb 46 e4 3d 1e 3d 36 3e 30 09 7a 3e c4 41 f2 bc
       0.11146339 0.17796752 0.24417567 -0.029572375
0000a0 1d 18 03 be 04 c8 89 3d 32 be c5 bd 1a 11 38 3c
       -0.12802167 0.06727603 -0.096554175 0.011234546
0000b0 9b ef 17 3e 02 6c 0e 3f b4 b1 c3 3c cd 89 6b 3e
       0.14837496 0.55633557 0.023888446 0.23001786
0000c0 cf 96 9c 3e e9 8f ac 3e 17 a9 27 be 40 37 cf bc
       0.30583808 0.33703545 -0.16373096 -0.0252949
0000d0 52 2a 5e be b5 c1 7c be 1d 4b f6 bd 58 94 fb 3d
       -0.21695831 -0.24683268 -0.120260455 0.12284154
0000e0 ce e9 03 be 1b 99 a8 bc 1d 27 64 be 33 29 21 be
       -0.12882158 -0.020580819 -0.22280546 -0.15738373
0000f0 d1 fd 25 be 5f f1 75 be 60 2f 7c be 55 df 55 3e
       -0.16210105 -0.24017857 -0.24627447 0.20885976
000100 94 f4 58 3d 82 f8 c5 3c 96 39 97 be 06 87 58 3d
       0.052967623 0.02416635 -0.29536122 0.052863143
000110 50 6f ef bd 59 32 0d be e1 8b 89 3e 4b 10 ca 3e
       -0.11691153 -0.13788737 0.26864532 0.39465556
000120 41 a5 82 3e 83 1f 1c bc f7 26 7d be f5 51 09 3e
       0.25516704 -0.009528997 -0.24721895 0.1341017
000130 5c 50 b5 3e 72 e9 50 be eb e9 9c 3e 3a 10 5c 3c
       0.35412872 -0.20401552 0.30647215 0.013431603
000140 07 01 e6 bb 98 3d a4 3d c7 ab b5 3e 4a 55 43 3e
       -0.0070191654 0.080195606 0.35482618 0.19075504
000150 e4 98 a9 3e eb a4 0e 3e 38 a0 0e 3e 4f e2 52 bd
       0.3312446 0.13930099 0.13928306 -0.051485356
000160 f4 86 fa bd 06 21 b3 be 48 2b 23 3c a6 a1 1e 3e
       -0.122327715 -0.34986132 0.0099590495 0.15491351
000170 40 51 54 3e 46 61 1f be f8 21 96 3d f5 01 25 3e
       0.2073412 -0.1556445 0.07330698 0.16114028
000180 ad 19 38 3e b6 cc 19 be b0 c3 8d be d5 46 1e be
       0.17978545 -0.15019497 -0.2768836 -0.15456708
000190 2a 99 0c 3e 5a 4a 0c bd 65 1d 82 3d 17 e7 9d 3e
       0.13730302 -0.034250595 0.06353263 0.3084037
0001a0 e7 92 7d 3d c4 01 07 3f 32 4e 1b be 3b 8a 2d 3c
       0.061907675 0.5273707 -0.15166548 0.010592039
0001b0 f4 0c 6b bd 9a c2 c2 bd b9 af 08 3d 20 c6 3e 3d
       -0.0573854 -0.095097736 0.033370707 0.046575665
0001c0 85 98 81 3e e6 e8 0d 3c 03 46 b1 bd 79 19 cc bd
       0.25311676 0.008661484 -0.08655932 -0.09965796
0001d0 be 7c 8a 3e 7e 5b 8e bc 1d f3 ff bc fe 75 af 3d
       0.27048296 -0.017377611 -0.031243855 0.08567427
0001e0 2d 73 01 3e b2 98 e6 3d 10 e3 c0 3d ff 88 b6 3e
       0.12641592 0.11259593 0.09418309 0.35651395
0001f0 4e d7 12 3e 78 5f bf 3d 17 12 09 3e 1e 96 7b be
       0.14339945 0.09344381 0.13385807 -0.24568984

fc_query.weight f4 [128, 499]
000000 0c 6b 84 3c 69 51 bb 3e 10 36 49 3e af 00 b2 3e
       0.016164325 0.3658555 0.1964953 0.34766147
000010 18 e8 00 3e e0 2f 96 be ea 3f 03 3e c6 05 52 3e
       0.12588537 -0.293334 0.1281735 0.20510015
000020 33 b4 91 3d 21 cc d6 3c a2 8a b2 bc 48 fc fe 3c
       0.071144484 0.026220383 -0.02179462 0.031126156
000030 58 c0 b6 be 79 32 80 bd 1e e9 09 3e 40 ad d6 3e
       -0.35693622 -0.06259627 0.13467833 0.41929054
000040 46 c0 b5 3e d6 98 c4 bc 53 af 06 be a2 a0 b2 3e
       0.35498255 -0.02399866 -0.13152818 0.34888178
000050 d2 2a 5d 3e fe a3 2b 3d 7a 9f 3b 3c 38 e7 ec 3e
       0.21598366 0.041904442 0.011451596 0.46270156
000060 37 d9 aa 3d da 16 9a bc 88 18 f2 3d b6 f0 0c be
       0.08342212 -0.018809725 0.11821085 -0.13763699
000070 86 d8 59 3d 6f 81 50 3c 13 a0 ad be f2 b1 2f be
       0.05318501 0.012726172 -0.3391119 -0.17157724
000080 28 19 90 bd 5d 73 cc bd 4d 81 bd be d2 c2 12 bd
       -0.07036048 -0.09982941 -0.3701271 -0.035830326
000090 cf 1f 10 3e 51 84 46 3e 0e 5b 47 3e f6 bf 8d 3c
       0.14074634 0.19386412 0.19468328 0.017303448
0000a0 0b 99 19 3e 5b bf 85 3e d9 2e ac 3e 21 5e 72 bd
       0.14999788 0.26122555 0.33629492 -0.0591718
0000b0 01 8b 78 3d 4a 53 4c 3e a4 d5 11 bf ef 7f 88 be
       0.06067944 0.19953647 -0.56966615 -0.26660106
0000c0 68 65 15 3e 49 ab 12 bc 5b a0 01 3f 82 5f fc bb
       0.14589465 -0.00895197 0.5063531 -0.007701815
0000d0 81 ca 33 be 74 25 e1 bd 9e 73 5e 3c 88 74 cb be
       -0.17557718 -0.10993472 0.01357737 -0.39737344
0000e0 a4 74 9e 3e 70 71 71 3d 09 2d de 3e 8a 43 b2 3d
       0.30948365 0.058946073 0.43393734 0.08704288
0000f0 16 41 5e bc cd 26 82 be fe 3e 60 3e fa b7 f2 bd
       -0.013565322 -0.25420228 0.2189903 -0.11851497
000100 c6 d9 02 bd db 8d 1c be 46 cf 1a 3e 4a e6 8f 3d
       -0.031945966 -0.15288489 0.15118131 0.07026346
000110 23 8b b9 bd a9 61 8b 3e 12 15 2c be 17 7f 5c 3d
       -0.09059741 0.27222946 -0.16804913 0.05383214
000120 71 a4 5a bd 66 66 66 be a3 1d ba 3e e1 e8 17 3e
       -0.05337948 -0.225 0.36350736 0.1483493
000130 85 46 0a be e4 bc 28 be 9e 77 02 3e 5d da 90 3d
       -0.13503464 -0.16478306 0.12740943 0.070728995
000140 01 1e 9b 3c 54 f2 63 bc 1c ac ec be 3f 98 09 3e
       0.018935205 -0.013912756 -0.4622506 0.13436984
000150 38 bf 71 bd cf e2 2e 3d 9f bb b3 bd a3 0e e4 3d
       -0.05902025 0.04269677 -0.0877602 0.11135604
000160 8f be b9 3d e5 75 ab be bc d1 95 bb 3e 42 46 be
       0.09069549 -0.33488384 -0.0045721214 -0.19361207
000170 6c 09 22 3e a8 91 02 be 68 c6 17 be 51 71 89 be
       0.15823907 -0.12750876 -0.1482178 -0.26844266
000180 b8 aa 2e 3f 8e 2d ac be 95 cc 84 3e 35 61 c9 bd
       0.68229246 -0.33628505 0.25937334 -0.09832994
000190 04 3f 04 3e ca c4 ee bd a0 21 0f be ce dc 41 be
       0.12914664 -0.11658628 -0.1397767 -0.18931887
0001a0 de 77 70 3d a9 2a 3c 3e 07 40 8a be 55 b1 c3 3e
       0.058708064 0.18375649 -0.27001974 0.3822123
0001b0 9b 80 9e bc 3f b7 57 bd 45 61 c3 be f5 5c 35 3e
       -0.019348433 -0.05266499 -0.38160148 0.17711242
0001c0 e3 c8 bd 3d de 95 c1 bd be ba 6b bd e7 63 47 3e
       0.09266832 -0.09452413 -0.057551138 0.19471703
0001d0 62 b6 87 3d 6c 19 49 be ff f3 33 be b8 7a a8 3e
       0.06626584 -0.19638604 -0.17573546 0.32906127
0001e0 3f 15 ff bd 62 59 4a bd a8 00 0e 3e 80 fd 14 3d
       -0.12455224 -0.04940165 0.13867438 0.03637457
0001f0 a4 2b 48 be 9d e5 af 3d 6e a3 3b 3d 66 cd a7 be
       -0.19547898 0.08588717 0.045810156 -0.32773894
000200 d7 f7 ca bd 89 68 fd be 6d 00 33 3d ea fb d7 3d
       -0.09910553 -0.49493816 0.043701578 0.10546096
000210 f1 56 4e bc c4 81 dd 3d 29 20 a2 bd e9 cf ac be
       -0.012593971 0.108157665 -0.0791629 -0.33752373
000220 33 db 2a be a1 5d e6 3d 60 7b 97 bd a3 f6 e3 bb
       -0.1668518 0.11248327 -0.07396579 -0.0069568916
000230 db b0 ae 3e c4 22 77 3e ce 0f aa 3d 94 1d 4f 3e
       0.34119305 0.24134356 0.08303796 0.20226127
000240 7b 7e 57 be 6b 85 61 3e 28 94 ad bd f2 c9 93 3b
       -0.21044342 0.22023551 -0.08475524 0.0045101577
000250 b6 f6 87 3d 28 dd ad bb 8b 1f f5 3d ac 36 22 bd
       0.06638853 -0.005305905 0.11968907 -0.03960292
000260 3c ab 84 3e 14 39 be 3e c5 f1 92 3e 08 a6 26 3e
       0.2591189 0.37152922 0.2870008 0.16274273
000270 e9 11 9f be 07 4e bf be 46 bd 85 3e 63 5c aa bd
       -0.31068352 -0.37364218 0.26120967 -0.083184026
000280 9f 0c 3b 3e 28 c7 76 3e 3a 1e 6a 3e 7b 48 a8 3d
       0.18266533 0.2409941 0.22863093 0.082169496
000290 c5 8b 04 be 9b ee 7d 3e 7f 91 02 bc c1 de 8e be
       -0.12943943 0.24798052 -0.007969259 -0.27904323
0002a0 b6 bc 90 3e e0 8e d4 bb 4d 4a 20 3e be 84 10 3e
       0.28268975 -0.0064867586 0.15653343 0.14113137
0002b0 a3 ec ac bd 59 72 65 3e 13 1d cf 3d 00 9f b1 be
       -0.08443572 0.22406901 0.10112967 -0.3469162
0002c0 0f 91 4e be 8a a1 b8 bd 3f 1a 03 3f d9 f7 fb 3c
       -0.20172523 -0.09015186 0.51211923 0.030757831
0002d0 38 e2 3e be ff e2 e6 3d e2 6a 26 be f0 46 22 be
       -0.18640983 0.11273765 -0.1625171 -0.15847373
0002e0 7b 41 62 3e c5 2b 6b 3b e3 7f 7b be c8 15 1a bc
       0.22095291 0.0035884243 -0.24560504 -0.009404607
0002f0 94 e1 dd 3d 0e ed ce bd 54 55 87 be 23 09 08 be
       0.10834041 -0.10103808 -0.26432288 -0.13284735
000300 98 a3 66 bd f5 97 2e be 78 20 4d 3e 8a 07 c9 3d
       -0.05630836 -0.17050155 0.20031917 0.09815891
000310 23 39 81 be f3 d8 9f be 1e 0a 4e be 64 55 5b 3d
       -0.25238904 -0.31220207 -0.20121047 0.05354823
000320 49 e1 dd bd da a5 13 be 9d fc ba bd 81 84 af be
       -0.10833985 -0.14418736 -0.091302134 -0.3428078
000330 db 09 7d bd 19 9f d9 3d 00 59 2d 3e 86 be 9c be
       -0.061776977 0.106260486 0.16928482 -0.30614108
000340 02 d4 a6 bd 02 f9 5d bd 65 db bf bd 1b ae af 3e
       -0.08145906 -0.05419255 -0.09368018 0.3431252
000350 78 38 47 bd df 9e c1 3e b5 e6 2f be bc 55 93 bd
       -0.048637837 0.37816522 -0.17177851 -0.07194087
000360 c7 37 d2 3e 83 fb 8f 3c b5 04 f0 bd 15 58 04 3d
       0.4105818 0.017575985 -0.11719648 0.032310564
000370 84 15 3f 3e ff a0 52 be c7 9d 4f 3e 34 64 66 3e
       0.18660551 -0.20569228 0.20275031 0.22499162
000380 ee 13 95 bd b9 c0 3a be 7e 5a 43 3d 04 30 4b 3d
       -0.07279192 -0.1823758 0.047693722 0.04960634
000390 c4 a2 59 be db 39 84 be 32 f5 bd be fe c1 16 3d
       -0.21253496 -0.2582539 -0.37101132 0.0368061
0003a0 2a 21 d6 3d 32 64 66 3d 44 3c 93 3e d6 ea 50 3e
       0.10455544 0.056247897 0.28756917 0.20402083
0003b0 ae 62 83 bd 71 4e 93 3e 2b ab 03 bf 9f cc 03 3e
       -0.06415306 0.28770784 -0.51433057 0.12871026
0003c0 0b f7 b5 3d f0 6e 48 bd 92 cb 04 3d e2 5c 08 3f
       0.0888501 -0.048933923 0.032420702 0.5326673
0003d0 bb 35 20 3e da f6 fe 3c ca 3f 31 3e 7c 15 16 be
       0.15645497 0.031123567 0.1730949 -0.14656633
0003e0 3d 82 7f bd 01 75 d0 bd 5f ba d1 3e 25 a1 30 3b
       -0.062380064 -0.10178567 0.40962502 0.0026951518
0003f0 bb bd af 3e 95 40 86 3e 87 77 d3 be 98 d2 6a 3e
       0.3432444 0.26221147 -0.4130213 0.22931898

fc_query.bias f4 [128]
000000 64 85 d5 bc 33 1e 07 3b da 0b af 3c 35 6d 04 bc
       -0.026064582 0.0020617365 0.021367956 -0.008082678
000010 32 ac 0a bd 94 73 5d bd 81 75 ed bb a0 04 01 3e
       -0.033855624 -0.054065302 -0.0072466736 0.1259942
000020 1a 9f 92 bd 2f b1 a8 3c 24 4d 05 ba 5d 10 fe bc
       -0.071592525 0.0205923 -0.0005085042 -0.031013662
000030 3a de aa bd 2c 7d 57 bd a8 1d 2c bd 9e c1 be 3b
       -0.083431676 -0.052609608 -0.04202047 0.005821421
000040 e8 2e 1b 3c ad 04 a6 bd 22 7e 92 bc 92 7c 31 3e
       0.009471633 -0.081063606 -0.01788241 0.17332676
000050 53 69 a7 bd a4 98 6a bd 1b d3 59 bd cc af 68 bd
       -0.08174386 -0.057274476 -0.05317984 -0.056808278
000060 25 5a 90 3c 51 45 7c bd 70 4d aa ba 2a f1 16 bc
       0.01762111 -0.061589543 -0.0012993049 -0.009212771
000070 2a f4 46 bc fa d8 59 bd dc 25 b8 bd 3b 83 09 3d
       -0.012143174 -0.05318544 -0.08991596 0.033572417
000080 a6 a6 49 bd 2a 8e d8 bd 3e bd 30 bc 9d 76 aa bd
       -0.049231194 -0.10573991 -0.010787306 -0.08323405
000090 0d 06 3d bd 42 e7 86 bd 36 14 19 bd ed 45 7d bd
       -0.04614835 -0.06587078 -0.03737279 -0.061834265
0000a0 2e 92 9c 3c fa 3b 42 bd ed dd fe bb e0 41 7c bd
       0.019112673 -0.04742048 -0.0077779205 -0.06158626
0000b0 d6 21 a2 bd 36 e6 09 be 71 56 ab bd 54 b1 c8 bd
       -0.0791661 -0.13466725 -0.08366097 -0.09799448
0000c0 33 f7 25 bd 68 6f ac bd ba b0 8d bd 6f f8 d5 bc
       -0.04051895 -0.084196866 -0.069184735 -0.026119439
0000d0 fa bb 67 3d e4 d9 87 bc e9 f0 88 3e 8e 9e 05 be
       0.056575753 -0.01658339 0.267463 -0.13048765
0000e0 0a 8a 70 bd e1 30 6e 3d 5c 20 ee bc 17 0c 50 bd
       -0.058725394 0.058152083 -0.029068165 -0.05079278
0000f0 95 2e 59 bd 18 a3 ae 3c f3 b9 a0 3d 71 0b 28 be
       -0.05302294 0.021318004 0.07847967 -0.16410615
000100 80 c2 36 bd 26 04 9f bb e5 b1 33 bb 55 49 a4 3c
       -0.044619083 -0.0048527895 -0.0027419266 0.020054499
000110 dd 35 f0 3d 50 b8 49 3d 2c 33 a9 bc 15 e3 c7 bd
       0.117290236 0.04924804 -0.020654283 -0.09760109
000120 9c c5 b8 bd c6 1d f9 bc a1 eb 4d bd 2a 51 a5 bd
       -0.09022066 -0.030409705 -0.05027354 -0.080721214
000130 a3 07 a8 bd 8c 4a e2 3c 73 73 63 bd e5 30 8b 3c
       -0.082045816 0.027623437 -0.055530023 0.016991088
000140 3d fd cd bc 2e 37 c4 b9 83 dc 99 bd 2b 08 5a bd
       -0.025145167 -0.00037425145 -0.075127624 -0.053230446
000150 b9 4a d1 bd 6a 8b 56 bd 00 c8 bf bd 06 09 88 3b
       -0.1021933 -0.05237905 -0.09364319 0.0041514663
000160 6e b5 88 bd 8c 2b c3 3d 84 b3 86 bc 06 41 a4 3c
       -0.0667523 0.0952979 -0.016443022 0.020050537
000170 08 17 7c bd 2a 84 53 3d 7a cd 88 bc 16 8c bf bd
       -0.0615454 0.051639713 -0.016699541 -0.09352891
000180 2a 8a 4a bd 12 b8 23 bd 23 e6 97 3c 41 33 01 3d
       -0.04944817 -0.039970465 0.018542355 0.03154302
000190 ed 74 91 bd 93 f4 4d 3d 95 c2 ee 3d 37 a8 92 bd
       -0.0710238 0.050282072 0.11658207 -0.07160991
0001a0 ee d9 de 3c 57 d0 73 bd 1f 5a f6 bc 25 6b 5c 3c
       0.027203526 -0.05952486 -0.03007227 0.01345328
0001b0 8c c2 f7 bb ac b2 33 3d 1f 8a 2e 3c 27 c8 e7 3c
       -0.0075610336 0.043871567 0.010653048 0.028293682
0001c0 16 ed bf bd 5f 8c 30 bd fc 02 57 bd 9f b9 c1 bc
       -0.093713924 -0.04310262 -0.05249308 -0.023648081
0001d0 4e a5 c9 3b 6d 9e 8e bc 2e dd cb 3d 00 07 f1 bc
       0.006153739 -0.017409528 0.09954296 -0.029422283
0001e0 5f 6d a0 bd e6 18 bf bd 12 14 05 bd 95 bb fc bc
       -0.07833361 -0.09330921 -0.032489844 -0.030851165
0001f0 3b 50 80 bd ef a6 b3 3c 8f ee c8 bd 64 e2 6b 3d
       -0.06265303 0.021930186 -0.098111264 0.05758895

fc_embed.weight f4 [128, 499]
000000 60 9c 54 3b 89 4b 0f 3e 13 c7 54 3e ca b7 4d 3c
       0.003244184 0.13993658 0.20779066 0.012556026
000010 6f e3 c4 3d 1f 0e 0c bd 85 f6 75 3d 6b 39 0f 3e
       0.09613692 -0.034193154 0.060049552 0.13986747
000020 08 ef 2d 3e aa 1a 84 bd ab 94 2b be 9a fa 0e 3c
       0.16985714 -0.06450398 -0.16755931 0.00872674
000030 b4 0d da b8 db a0 0d be b5 a6 41 3e 1c 8c 98 3e
       -0.000103976025 -0.13830893 0.1891125 0.29794395
000040 34 4e a9 bd 8f 80 16 3d 50 31 36 3e 68 db 81 3e
       -0.08266869 0.036743697 0.17792249 0.25362706
000050 70 5a b3 bd f2 0a 82 be 8d 61 41 be 34 d3 a3 bb
       -0.08757484 -0.25398976 -0.18884869 -0.0049995426
000060 db 78 dd 3d d8 d3 da 3e 6b b8 27 be 6b 5e 50 bc
       0.10814067 0.4273975 -0.16378944 -0.0127178235
000070 5d b8 01 be 6c 3f 58 be 68 7b 47 be 2b 62 a4 bd
       -0.12667985 -0.21117944 -0.1948067 -0.080265366
000080 ce 6d da 3d 8a a6 32 bd 20 a7 e7 3c c0 44 92 3d
       0.10665475 -0.043615855 0.028277934 0.07142019
000090 96 37 1a be 06 7a 2d bc d2 f6 6a 3d f3 53 c3 be
       -0.15060267 -0.010588175 0.057364292 -0.38149986
0000a0 b9 ee 0c 3e d0 03 14 bd 10 88 ef 3d a3 40 34 3e
       0.1376294 -0.03613645 0.11695874 0.17602782
0000b0 cd db 56 3e 54 d3 18 3e 2f 9a 22 3e 7a bb 0c 3d
       0.20982285 0.14924365 0.15879129 0.03435848
0000c0 91 ec d9 3d 50 51 74 be b0 78 b0 bd 9e ff f0 3d
       0.106408246 -0.23859143 -0.08616769 0.11767505
0000d0 cd 13 35 3e 6f 27 3f 3e 92 80 f3 3d 82 31 50 be
       0.17683335 0.18667386 0.11889757 -0.20331386
0000e0 56 74 89 3e 80 a1 7d 3d fb 17 4e bd f7 d9 b3 3d
       0.2684657 0.061921597 -0.05031584 0.08781808
0000f0 0d f3 59 3e 6a f2 a4 be f8 c7 e2 bd 75 81 66 be
       0.21284123 -0.32216197 -0.11073297 -0.22510321
000100 84 a5 f1 3d a2 e1 7f 3d 6a 23 68 bd ff 08 0c be
       0.11799148 0.06247104 -0.0566744 -0.13675307
000110 b1 43 1e 3e cb 91 ad bd 15 9f ff bb bc 2f 90 3e
       0.1545551 -0.084750734 -0.0078009465 0.28161418
000120 42 c8 23 3e fb 9f 03 3e b1 8c a5 3e 6a 7e f4 3c
       0.15994361 0.12853996 0.32333902 0.029845435
000130 e3 ff ff bd 69 b9 7e bc e2 ad 87 3e f9 63 00 3d
       -0.124999784 -0.015547135 0.2649985 0.03134534
000140 39 ac df bd 86 af 56 be 8e c8 d8 bd 3d e5 37 3d
       -0.10921521 -0.20965394 -0.10585128 0.044896353
000150 e2 e8 c7 bd ac f3 16 3e bc 64 32 3e a3 83 2a 3e
       -0.09761216 0.14741391 0.1742124 0.16651778
000160 35 59 3e bc f0 2b 05 bd db 70 ac 3d 5e 46 01 bd
       -0.011617948 -0.032512605 0.08419963 -0.031561248
000170 2a 74 30 be 74 97 a5 b9 fb 64 85 bd ba 27 88 3d
       -0.17231813 -0.00031584094 -0.06513401 0.06648202
000180 13 8c 27 3d 9c c7 0f bd 37 d1 8b 3d a9 01 c5 3e
       0.04090507 -0.03510247 0.06827014 0.3847783
000190 7d 83 b2 3c a9 83 94 3d 4a c8 8b bd 00 12 91 3e
       0.021791214 0.07251675 -0.068253115 0.28334045
0001a0 47 cf 93 bd 46 4b a9 bb 41 bc 03 bd 42 15 94 bc
       -0.072172694 -0.005166444 -0.032161955 -0.018076543
0001b0 71 ae a8 3c 5f 86 8d bd 13 c4 ca ba 20 ce 95 bd
       0.020590993 -0.06910395 -0.0015469812 -0.07314706
0001c0 ec 46 79 be 25 c0 ab bd 12 92 4a bd 46 99 bd be
       -0.24343461 -0.08386258 -0.04945571 -0.37031
0001d0 c9 0b ca 3d 36 b2 af 3e b7 80 8f be 72 41 52 be
       0.09865529 0.34315652 -0.2802789 -0.20532778
0001e0 9c cd be 3e c0 31 6c 3e 31 9b cb bd 03 11 21 be
       0.37266243 0.23065853 -0.0994171 -0.15729146
0001f0 94 be 0d 3e 99 ee 17 3d dc b1 1e be d9 40 c0 bd
       0.13842231 0.03709278 -0.15497535 -0.09387369
000200 cb b7 a0 3e d9 f5 93 bd d7 82 8d 3a b2 16 63 3e
       0.31390223 -0.07224626 0.001079644 0.22176626
000210 8f fe 01 be f7 4d 9e 3d ce 5e e7 bd 02 5c d7 bc
       -0.12694763 0.07729714 -0.112973794 -0.02628899
000220 6d e9 03 bd ae d2 ad bd b9 49 ad 3e 43 af 2a bd
       -0.032205034 -0.084874496 0.33845308 -0.04167105
000230 a4 6d 3e be ec 9c 18 bd 1e 58 9b 3d ef 34 a4 bd
       -0.18596512 -0.037259027 0.075851664 -0.08017909
000240 2e dd 0f be 2b e3 ad 3d c4 d2 21 bc 91 72 81 bd
       -0.14049217 0.084905945 -0.009876911 -0.0632068
000250 58 3c 71 3e 95 17 ae be 0a f0 6e 3d 1f 5f 1b 3e
       0.23558176 -0.34002367 0.058334388 0.15173005
000260 42 fc 25 3e da 74 f1 bd b8 0d a1 bd 48 fc 7a 3e
       0.1620951 -0.11789866 -0.07863945 0.245103
000270 fd 67 2d bc a9 62 5c bd d9 a3 85 be 59 f2 88 3e
       -0.010583875 -0.053805027 -0.26101568 0.26747397
000280 56 c2 de bd 76 e7 cb bd f6 5d 8c 3e c2 34 cd bd
       -0.108769104 -0.09956257 0.27415437 -0.100198284
000290 a2 f9 8b bc 93 f4 fc 3d d8 70 1e 3e a2 83 93 3d
       -0.017086808 0.12351336 0.15472734 0.07202841
0002a0 c2 96 25 bc a4 80 52 3d 96 ff e0 bd 01 74 c6 bd
       -0.010106744 0.051392213 -0.10986249 -0.09690095
0002b0 ec 66 03 be 89 6e eb 3c 22 2c 95 bd 49 93 bb bd
       -0.1283223 0.02873923 -0.07283808 -0.09158952
0002c0 36 c0 e1 39 af 5b 61 3e cc e4 a8 bc 80 41 b3 3e
       0.00043058553 0.22007631 -0.020616911 0.3501091
0002d0 f2 e4 fd bd 3e 02 3d 3e e2 8b 6f be 7d 7b 3c 3e
       -0.123971835 0.18457887 -0.23393205 0.18406482
0002e0 81 63 45 3e 83 2c ad bd 9c b1 ab 3d 79 9e 25 be
       0.19276239 -0.084557556 0.08383486 -0.16173734
0002f0 11 78 04 bc 17 02 43 3e 75 d3 15 be 07 ca 8a bd
       -0.008085267 0.19043766 -0.14631446 -0.06776815
000300 cf 71 16 bc a9 75 0c 3e c3 6a a8 bd 0f 18 29 bd
       -0.0091824075 0.13716759 -0.08223488 -0.04128271
000310 47 d8 69 bd 52 3c 09 be 55 b9 16 be 1b 31 1d be
       -0.057091024 -0.13401917 -0.14719136 -0.15350763
000320 3a 4c 3f be ae e9 44 3e 0a 57 a9 bb 81 47 6c be
       -0.18681422 0.19229767 -0.0051678466 -0.23074152
000330 cf a7 26 be be ca 3e be 6c a5 38 3e c2 7a f0 3c
       -0.16274951 -0.18632028 0.18031853 0.02935541
000340 f5 ed 19 3e f6 83 b1 bc 48 34 38 bc 6c ee 62 bd
       0.1503218 -0.02166937 -0.011242934 -0.055403158
000350 e2 0b 95 3d f2 bf bf bd 24 0c 31 be 1c b8 42 3b
       0.07277657 -0.093627825 -0.17289788 0.0029711789
000360 ec a1 6c be b6 4f 03 bc e6 e1 d0 3d 11 ae 9f 3d
       -0.23108643 -0.00801461 0.10199337 0.077968724
000370 d3 5c 90 bb 98 88 25 bc 56 93 90 3e 67 70 78 bd
       -0.0044055968 -0.010103367 0.28237408 -0.06065407
000380 fa 25 9c ba 0b f4 9a be b9 0c f9 3d 37 d0 f3 3e
       -0.0011913173 -0.30264315 0.1216063 0.47619793
000390 5d bd ef bb 7f 3d 1b bd d9 8e ab bd 16 34 ba bc
       -0.007316275 -0.037900444 -0.083768554 -0.022729915
0003a0 ef f0 3d 3d e7 e7 3f bd 89 dc 85 3d 8b 83 01 3e
       0.04637235 -0.04685202 0.06536204 0.12647836
0003b0 ab ce 61 bd 1c e2 09 be bc 92 ef bd a5 a0 84 bc
       -0.055128735 -0.1346516 -0.11697909 -0.016189883
0003c0 65 ab 0d be a4 7c 2b 3e 23 f3 0f 3c b2 ab 6c bd
       -0.13834913 0.16746765 0.008785996 -0.05778093
0003d0 4d 7a 02 bd ca 0c d1 bb 4c 14 9a 3b ff cd 76 be
       -0.031854916 -0.0063796984 0.0047021266 -0.24102019
0003e0 49 c8 da 3d b7 a1 38 be 52 17 3b 3e 77 f7 b9 bd
       0.106827326 -0.1803044 0.18270615 -0.09080403
0003f0 4f 3c 3c be 97 c4 ce 3c 12 c1 09 be 1e 3b 46 3e
       -0.18382381 0.025240226 -0.13452557 0.19358489

fc_embed.bias f4 [128]
000000 e7 83 39 3a 46 f5 96 bb dd da 8d bd 37 a5 31 bd
       0.0007076845 -0.0046068756 -0.069265105 -0.04337045
000010 3a 31 1d bc a6 58 8c 3d 1d 53 72 bd 61 d0 e4 bc
       -0.009594256 0.06852846 -0.059161294 -0.027931394
000020 b8 92 c8 bc 70 ad 1e 3c d9 70 ca 3c 78 25 b9 3c
       -0.024484023 0.009684905 0.024712013 0.022600874
000030 d9 50 d8 3c ab f5 3d bd 11 f5 4a 3d 7f 3a 28 3d
       0.026405739 -0.046376865 0.04955012 0.04107141
000040 da 44 d1 3d 23 cd 83 3d c2 3f 70 bd 3b 2f 51 3d
       0.102182105 0.06435611 -0.058654554 0.051070433
000050 cc ad 1d 3d fa f5 82 3c 6a cf 9e bc dc f7 42 3d
       0.038495824 0.015986431 -0.019386012 0.04759966
000060 a7 a3 4a 3c 90 33 1e bd 0e e2 82 bd 23 0b 96 3c
       0.012368119 -0.038623393 -0.06390773 0.018315857
000070 07 b8 82 bd 0d 8c 7d bd ce 5f 94 bd 7a d3 85 bd
       -0.06382757 -0.06190114 -0.07244836 -0.065344766
000080 78 88 43 bd 22 f2 0e 3c 02 c2 8e 3d e3 11 2e bd
       -0.04773757 0.008724721 0.06970598 -0.042497527
000090 96 97 3e 3d de 9f c4 3d 66 2d 02 3d 54 1c b0 3d
       0.046531282 0.09600805 0.031781577 0.08599153
0000a0 2d 9c 1e 39 f9 94 07 bc b6 5d 67 bd ab 5a a3 bc
       0.00015126234 -0.008275264 -0.056485854 -0.019940695
0000b0 ee de ab 3d cd a4 8b 3d ad ae a5 3d c3 20 85 bc
       0.0839213 0.06818543 0.080899574 -0.016250974
0000c0 f0 15 35 bd 84 fb 0f 3d 15 35 e7 bc 09 82 1a 3c
       -0.044210374 0.035151973 -0.028223554 0.009430417
0000d0 50 00 19 bd be c5 83 3c 0c b7 77 bd 41 e5 99 bd
       -0.037353814 0.016085502 -0.0604773 -0.0751443
0000e0 24 93 c7 3c 1a b7 29 3d 70 d0 a7 3d 03 80 c1 3d
       0.024362154 0.041434385 0.08194053 0.094482444
0000f0 d1 bd 86 bd 80 cd da bd c5 61 81 bd 7c 03 f8 bc
       -0.06579173 -0.10683727 -0.06317476 -0.030275099
000100 d9 63 b4 bd 1e fe 35 3d 44 8d 85 bc b1 32 f1 3c
       -0.08808107 0.0444318 -0.016302712 0.029443117
000110 90 86 f2 3c 90 be 08 bd 39 e8 89 bd 1f d0 fe 3c
       0.02960518 -0.03338486 -0.06733746 0.0311051
000120 43 6e cb bd 10 db 7f 3d ec 23 76 bd ec 18 b6 bd
       -0.0993314 0.062464774 -0.06009285 -0.08891472
000130 51 90 9f 3d 05 75 8b bd af 74 9a bd 3d 2b 1b bd
       0.07791198 -0.06809429 -0.07541787 -0.037883032
000140 0a f2 cc 3d 36 73 17 3c 4b ed 1f 3d a8 1a e0 3c
       0.10007103 0.009243777 0.03904466 0.02735646
000150 5d 52 38 3d e2 e4 9e bd d5 01 79 3d c6 8b 76 bd
       0.045000423 -0.077585 0.060792763 -0.060191892
000160 7d cc 47 3d 9a 8c 15 3d 46 37 88 3c d7 d3 a5 bd
       0.048779 0.03651104 0.016627919 -0.08097046
000170 c0 77 4d 3c 55 f0 2f bd 38 9c 0d 3a ac 98 4b bc
       0.012540758 -0.042953808 0.00054020016 -0.0124265365
000180 a5 ac 72 3d 01 3e a4 3d 50 ad a1 bd 4f 94 08 3d
       0.059246678 0.08019639 -0.07894385 0.033344563
000190 89 70 a2 bd 26 c7 e0 ba 45 51 81 3d e8 d2 87 bd
       -0.07931621 -0.0017149195 0.06314329 -0.06632024
0001a0 25 d9 8e bb 3b ec 4f 3d bc 97 82 3b b2 1c d7 bd
       -0.0043593817 0.050762396 0.0039853733 -0.1050352
0001b0 05 bb b4 3b fc ed 61 3d d4 c8 c0 3d 1a 9b ee bc
       0.0055154585 0.0551586 0.09413305 -0.029126693
0001c0 8f 96 0b 3d 0e 85 7e bd 23 47 27 3d 6c 95 a6 bd
       0.03407913 -0.06213861 0.040839326 -0.08133969
0001d0 a1 45 8f bd e4 32 d6 3c d6 b0 34 3d 97 d5 16 3d
       -0.069957025 0.026147313 0.044113956 0.03682479
0001e0 e9 45 05 b9 71 9e 0d bc f9 f6 2b bd 48 61 f4 bc
       -0.00012709912 -0.008643732 -0.04198358 -0.029831544
0001f0 2f e9 0a 3d fe 04 bc bc 45 9f fb bc 45 26 93 3d
       0.033913787 -0.0229516 -0.030715594 0.07185034

fc.weight f4 [1, 128]
000000 44 fb 57 3c 15 89 e9 3c 89 ff 7f 3d a4 68 32 3c
       0.013182465 0.028507749 0.062499557 0.010889206
000010 d3 9d 2a 3c 31 5d 9a bd b8 ed 59 3d f4 24 8d bb
       0.010413605 -0.07537306 0.053205222 -0.0043073837
000020 dd fa b9 3c 98 8e 8e bc 26 26 93 bc fb e7 24 bc
       0.022702629 -0.017401978 -0.017962527 -0.010065074
000030 ee 17 95 bc a4 78 b9 3d 4d 99 d2 bc 0a 75 b3 bd
       -0.018199887 0.090562135 -0.025707865 -0.08762558
000040 c0 8b ed bd 1f 87 20 bd 53 5e 7f 3d 24 e1 b7 bc
       -0.11598921 -0.03919136 0.062345814 -0.022446223
000050 d0 ec e3 bb 91 c6 e8 3b ff 79 51 3d ef 3c 4e bc
       -0.0069557205 0.007103749 0.051141735 -0.01258777
000060 e7 9e 70 bc 47 71 47 3d dc 33 b6 3d cf 09 a6 bc
       -0.014686323 0.048692014 0.0889661 -0.020268349
000070 21 18 bc 3d 08 a7 cb 3d 06 a9 a2 3d 57 a6 30 3d
       0.0918429 0.09943968 0.07942395 0.043127384
000080 50 9a 1a 3d 4d 02 3a bd 7c 61 21 bd a5 df b3 3d
       0.03774482 -0.04541235 -0.03939961 0.08782891
000090 55 00 25 bd 48 96 df bd 34 36 79 bd f4 a6 95 bd
       -0.04028352 -0.10917336 -0.060842708 -0.073072344
0000a0 50 07 14 3c 22 02 29 3d 5a ad bc 3c 84 33 cf 3a
       0.009034947 0.0412618 0.02303188 0.00158082
0000b0 d8 e4 9b bd 45 19 fe bd e2 d8 4b bd 35 1e 96 3c
       -0.07612008 -0.124071635 -0.049767382 0.01832495
0000c0 9c 3d c7 3b 43 37 a5 bd 33 7b b0 3c c6 7b 0f bd
       0.0060803425 -0.08067181 0.021543121 -0.03503015
0000d0 fe 25 90 3d 80 82 a0 bc 47 e7 bc 3d 2d cc c2 3d
       0.070384964 -0.019593477 0.092238 0.095116
0000e0 fa 2c b6 bc c0 91 09 be c1 e2 39 bd a6 1c e8 bd
       -0.022238243 -0.13434505 -0.045382265 -0.11333589
0000f0 72 95 1c 3e 25 84 f8 3d dd f0 1d 3c 1d a7 00 bc
       0.15291384 0.121345796 0.009639946 -0.007852343
000100 dd d4 1f 3d a1 dc 1a bc 6e 6b 4a 3c 93 ea 6e bc
       0.03902136 -0.009452016 0.012354715 -0.014582294
000110 f2 71 d9 bd 20 1a 5c 3b da 3f 85 3d 9f aa c7 bd
       -0.106174365 0.0033584908 0.06506319 -0.0974934
000120 56 17 13 3e 6a f8 f7 bd c0 11 4f 3d 55 96 d5 3c
       0.1436437 -0.12107928 0.050554037 0.02607266
000130 6c 7a e4 bd cd d3 14 3d 81 42 d0 3d 46 e7 1c 3d
       -0.111561626 0.0363348 0.101689346 0.038306497
000140 3c 9c f6 bd 3b 4b 57 bc cb 77 87 bd 03 cd 4f bc
       -0.12041518 -0.013140495 -0.066146456 -0.012683156
000150 ac a7 51 bd 3e c6 cb 3d e3 04 f0 bc 4c 80 84 3c
       -0.051185295 0.09949921 -0.029299205 0.016174458
000160 f9 eb d8 bd b7 c7 07 be 09 e4 dc bb 74 70 0b 3e
       -0.10591883 -0.13259779 -0.006741051 0.13617116
000170 21 93 b6 bc a3 4f 80 3d 63 0c 12 3c 21 d0 bd 3c
       -0.022286953 0.062651895 0.008914086 0.023170533
000180 f0 45 50 bd 47 b4 08 be fa de bd 3d de 52 5c bd
       -0.050847948 -0.1335002 0.09271045 -0.053789966
000190 53 a6 be 3d 90 df 3c bc 0c c6 3e bc 1d f4 5c 3d
       0.093090676 -0.011527911 -0.011643898 0.053943742
0001a0 20 27 83 bc c0 b7 f8 bc 2d 42 be bc 45 f0 17 3e
       -0.016009867 -0.030361056 -0.023224914 0.1483775
0001b0 96 a0 87 bc d4 f1 ca bb 75 ac af bd 13 06 8c 3d
       -0.016556066 -0.006193379 -0.085778154 0.06837096
0001c0 42 eb 51 bd c5 c6 1d 3d 93 2c eb bd fd f3 f4 3d
       -0.05124975 0.03851964 -0.11483111 0.119605996
0001d0 e5 ee fd 3d 96 67 e5 bb 0a 5f 4e bc 27 f1 3e bd
       0.12399081 -0.007000874 -0.012595901 -0.0466167
0001e0 74 e5 05 bc 1e b8 00 3c ea 6a b9 3c 4a 76 a0 3d
       -0.008172382 0.007856397 0.022633988 0.07835062
0001f0 fb ff d2 bc 05 57 00 3d 90 14 26 3c 82 9d 0b bd
       -0.025756827 0.03133299 0.010136738 -0.034085758
